policy/pi.pth (torch, 285444 bytes, 8 tensors)

layers.0.weight f4 [256, 12]
2.1674452 1.7580221 0.98857135 0.37174818 0.6452301 0.4247828 0.77626526 -0.42721167
3.381641 -0.010377216 -0.0027449434 0.6271073 -0.8087541 9.500087 -1.5407265 0.17317949
0.42968947 -0.28377992 -0.13096263 0.027529066 -0.04946236 -0.0037449948 -0.0063720895 -0.088974066
-7.158482 -0.6420381 -1.056363 -0.31433764 0.117582224 -0.62795067 0.21404044 0.072391406
0.18393134 0.0073289005 0.0114004845 0.07369459 2.3699155 -1.3273948 3.5532155 0.28990296
-0.16382591 0.30599788 -0.62091225 0.26241052 -1.0268307 -0.06663206 0.08255325 0.20275211
-6.935567 4.1018443 -0.79175436 -0.2285588 0.14584792 0.11297086 0.05660285 -0.08906654
-0.34838137 -0.0070332424 0.002207074 -0.06916115 4.0140786 3.7807043 3.790773 0.16791196
0.421675 0.26227757 0.21882188 0.23782264 0.021334609 -0.00980463 0.01203908 -0.12977064
2.1955876 -0.24073865 3.0114472 0.95405537 -0.24613044 0.19363232 -0.13307054 -0.5041106
1.3939905 -0.0067256414 -0.006798058 0.3069992 3.3316147 -0.6019417 -1.1823542 0.6795467
-0.30491006 -0.65894014 0.37344378 0.44387168 -0.29255146 0.02662374 0.13555355 0.048955347
-0.55602676 -2.3045588 -0.785173 -1.5680491 -0.32661355 -1.1568505 0.13275237 -0.51945716
0.66449255 -0.018046485 -0.018640658 -0.29907414 3.1686354 -2.1788902 -0.60318017 -0.7238126
0.51177484 0.13701199 0.7804364 0.27018368 0.10202186 0.066088594 0.02259483 -0.04903566
-3.0625544 -3.4518228 -2.1600018 -0.68600297 0.026276506 -0.30186728 0.35153192 0.60144764
0.73038137 -0.025332766 -0.011729397 0.42929843 -2.8254354 0.1725096 -0.97538966 0.17882203
-0.06259835 -0.28441608 0.09955294 0.09062734 0.5909171 -0.009946918 -0.015393345 0.27106813
2.1552927 0.77630204 -0.78755087 0.84334266 0.60544485 -0.21543932 0.38839337 -0.3175216
2.7200394 0.010526725 0.061736315 0.17623565 3.1507704 -1.4285606 -6.488998 0.3228229
-0.114973955 -0.51171213 -0.08324618 -0.0645982 0.5516442 0.0057555134 0.005213848 0.12914795
-2.433793 -0.095015064 -2.186062 -0.15379335 0.43551725 -1.3759828 0.446295 -0.086843185
0.74321795 0.012637809 0.022812959 0.59437555 -4.5763035 -0.85697806 0.048500676 -0.93501455
-0.5803513 0.39267355 -0.3589904 0.47314292 0.7278524 -0.009731267 0.03493814 0.11964235
2.9020798 0.43541664 -1.8854606 1.0132332 0.0524174 -0.74511117 0.46992654 0.093879715
-0.8789706 0.013344958 -0.010247943 -0.1480625 0.45963603 0.8350909 -0.78933716 -0.19147506
0.40860346 -0.6356133 -0.21426344 0.20923087 0.92752403 0.006501729 -0.03236119 -0.043259133
-0.73051333 5.078473 1.9504502 -0.08044501 1.8357319 0.05213651 0.52618086 -0.08545816
-0.7757159 0.025156133 0.0028193695 -0.099955864 2.1044314 -0.9842478 2.3265042 -0.21674772
-0.38015404 0.37026694 0.18689221 -0.87704736 1.0438805 -0.014700134 0.01811233 0.030378595
-4.4718485 2.1101878 -2.8160584 -0.106841676 -0.67509246 -0.45373228 -0.57217914 0.22562928
-0.2151036 -0.016089175 0.0048191845 -0.14943348 5.3817086 5.5151978 -0.47190472 -0.5257282
00000000: 6cb7 0a40 de06 e13f 0313 7d3f c755 be3e
00000010: cd2d 253f 227d d93e 52b9 463f 7dbb dabe
00000020: ce6c 5840 3305 2abc 82e4 33bb 1b8a 203f
00000030: 820a 4fbf 5b00 1841 8736 c5bf f755 313e
00000040: 4200 dc3e 9a4b 91be 111b 06be a384 e13c
00000050: 0b99 4abd 966e 75bb f6cc d0bb 0938 b6bd
00000060: 4912 e5c0 9c5c 24bf e736 87bf ddf0 a0be
00000070: f3ce f03d 60c1 20bf 6b2d 5b3e f241 943d
00000080: 7f58 3c3e 4627 f03b 19c9 3a3c 30ed 963d
00000090: b2ac 1740 13e8 a9bf e267 6340 296e 943e
000000a0: fbc1 27be c1ab 9c3e 1bf4 1ebf ac5a 863e
000000b0: 306f 83bf 6476 88bd ae11 a93d 409e 4f3e
000000c0: 2af0 ddc0 4f42 8340 6ab0 4abf 510b 6abe
000000d0: 2859 153e 445d e73d 64d8 673d 8568 b6bd
000000e0: 0b5f b2be 1d77 e6bb 8fa4 103b 5ca4 8dbd
000000f0: 5573 8040 0ff7 7140 069c 7240 1df1 2b3e
00000100: c9e5 d73e 3f49 863e d812 603e c787 733e
00000110: ebc5 ae3c 99a3 20bc 903f 453c 98e2 04be
00000120: 8284 0c40 3184 76be 8dbb 4040 f93c 743f
00000130: 9e09 7cbe 8d47 463e a543 08be 640d 01bf
00000140: 486e b23f c562 dcbb 3ec2 debb 002f 9d3e
00000150: 2d39 5540 da18 1abf 6257 97bf c6f6 2d3f
00000160: 2c1d 9cbe 4db0 28bf 0634 bf3e 2643 e33e
00000170: 4ec9 95be 081a da3c 8dce 0a3e 6785 483d
00000180: c557 0ebf e47d 13c0 1901 49bf d5b5 c8bf
00000190: e439 a7be ad13 94bf 3df0 073e 25fb 04bf
000001a0: 2f1c 2a3f 39d6 93bc 4bb4 98bc 3f20 99be
000001b0: ecca 4a40 f072 0bc0 046a 1abf c84b 39bf
000001c0: ad03 033f df4c 0c3e aeca 473f 8455 8a3e
000001d0: d6f0 d03d 7559 873d cb18 b93c 9ed9 48bd
000001e0: e400 44c0 aaea 5cc0 783d 0ac0 e49d 2fbf
000001f0: d441 d73c 598e 9abe fefb b33e 79f8 193f
00000200: 46fa 3a3f a986 cfbc a82c 40bc 01cd db3e
00000210: efd3 34c0 5ba6 303e 23b3 79bf 1f1d 373e
00000220: 9033 80bd fc9e 91be 69e2 cb3d d49a b93d
00000230: 5846 173f 66f8 22bc 5e34 7cbc 71c9 8a3e
00000240: 51f0 0940 bbbb 463f ef9c 49bf 4ee5 573f
00000250: 6ffe 1a3f 209c 5cbe 7fdb c63e 3192 a2be
00000260: 2015 2e40 4978 2c3c 38df 7c3d 1e77 343e
00000270: 39a6 4940 13db b6bf dfa5 cfc0 0b49 a53e
00000280: 7777 ebbd 91ff 02bf f97c aabd 104c 84bd
00000290: 8e38 0d3f bf98 bc3b edd8 aa3b 5c3f 043e
000002a0: 44c3 1bc0 4297 c2bd 71e8 0bc0 017c 1dbe
000002b0: 1efc de3e 3420 b0bf c780 e43e d7da b1bd
000002c0: 8843 3e3f d00e 4f3c 3ee2 ba3c ff28 183f
000002d0: 1471 92c0 ea62 5bbf a5a8 463d 1d5d 6fbf
000002e0: e791 14bf 820c c93e 97cd b7be ca3f f23e
000002f0: 8954 3a3f e46f 1fbc 4c1b 0f3d 0c07 f53d
00000300: adbb 3940 eeee de3e c656 f1bf a0b1 813f
00000310: a1b3 563d 9bbf 3ebf 369a f03e 0244 c03d
00000320: 3804 61bf d0a4 5a3c fde6 27bc b29d 17be
00000330: 6a55 eb3e 84c8 553f 0012 4abf 0a12 44be
00000340: 7934 d13e 8eb7 22bf e067 5bbe 9e40 563e
00000350: 3772 6d3f 750c d53b 2b8d 04bd 7d30 31bd
00000360: ec02 3bbf da82 a240 5aa8 f93f 5ac0 a4bd
00000370: 43f9 ea3f 188d 553d cab3 063f b004 afbd
00000380: 5195 46bf 3c14 ce3c 2cc5 383b a9b5 ccbd
00000390: 01af 0640 aaf7 7bbf 72e5 1440 1df3 5dbe
000003a0: 8da3 c2be a193 bd3e ac60 3f3e 2d86 60bf
000003b0: e09d 853f d5d8 70bc 4f60 943c 88dc f83c
000003c0: 6219 8fc0 510d 0740 4d3a 34c0 cfcf dabd
000003d0: dcd2 2cbf 994f e8be 557a 12bf 5d0b 673e
000003e0: 1e44 5cbe 72cd 83bc 40ea 9d3b 1705 19be
000003f0: f536 ac40 807c b040 7f9d f1be 2096 06bf

layers.0.bias f4 [256]
-0.261664 0.055147033 -0.005467666 -0.5766272 -0.09116551 0.0054160613 -0.008801083 -0.9277332
-0.3888438 -0.555156 -0.5062666 -0.080435805 -0.5696143 0.007509233 -0.16671382 -0.32482824
-0.21268775 -1.1971438 0.1365239 -0.7293482 -0.26520672 -0.7266326 -0.95282966 -0.25393838
-0.16184853 -0.15221 -0.58007884 0.21207376 -0.04480664 -0.4871938 -0.57162315 0.035676867
-0.3953648 -0.9820996 -0.2641891 -0.35337517 -0.5257892 -0.08804623 -0.42734998 -0.39362547
-0.73795 -0.6174375 -0.3058474 0.06011052 -0.3891393 -0.005765505 -1.1060526 -0.27592072
-0.068708725 -1.3609207 -0.04509245 -0.35931867 -0.2641445 -0.14159022 -0.87558717 -0.052749556
0.0037030224 -0.7965084 -0.14713097 -0.39613447 -1.1679621 -1.0200996 -0.7717876 -0.19421208
-0.29513663 -0.0069109187 -0.025533503 -0.20706896 0.044828776 -1.5709732 -0.12366256 -0.2371719
-0.4668204 -0.15906323 -0.12067302 -0.16105084 -0.89414847 -0.021791924 -0.63579804 -0.54505765
-0.78892726 0.046568297 0.10649108 -0.20454194 -0.00043795016 -0.1877973 0.0006931989 -0.014394108
-0.23057711 -0.13790442 -0.6873831 -0.75245434 -0.04583266 -0.22500132 -1.1852266 -0.28536287
-0.54988706 -0.2142759 -0.032386307 -0.41933927 -0.67092645 -0.4903302 -0.1023207 -0.45627862
0.058847982 -0.28756216 -0.35085416 -0.41994563 -0.42291734 -0.7762239 -0.011205854 -0.6629826
-1.1918956 -0.46433106 -0.57998055 -0.49702013 -0.0694383 -0.18895568 0.090504326 0.037801076
-0.69048697 -0.8522176 -1.7512356 -0.003393795 0.10253278 -0.4611222 -0.20128116 -0.019642042
0.0091663 -0.4384179 -0.19376221 -0.48584667 -0.5749201 -0.46914566 -0.11182667 -0.72959375
-0.36212578 -0.19792242 -0.044928864 -0.15262914 -0.008576268 -0.0021344242 -0.004477932 0.07201675
-0.17393486 -0.73376364 -0.17788628 -0.000653616 0.00025625832 -0.03891418 -0.2896824 -0.03964992
-0.95982456 -0.15071803 -0.26286379 0.039330915 -0.018221242 -0.37884492 -0.5473404 -0.023754183
-0.19113512 -0.8022114 -0.26781625 0.03193802 -0.21919173 0.03723064 -0.15646042 -0.8631332
-0.7734009 -0.21495064 -1.0554721 -0.15170504 0.0122168735 -0.3646212 -0.32905737 -0.6898301
-0.41439566 -0.1817424 -0.19832642 -0.6993045 -1.5059303 -0.014718278 0.20788574 -0.25429508
-0.46682993 0.027984306 -0.05071178 -0.035228524 -0.19821407 -0.64712495 -0.47652775 0.04312765
-0.016105149 -0.23997231 0.056817457 -0.8373924 0.04966096 -0.37277278 -1.4691137 -0.63838595
-0.2162718 -0.09914594 -0.213094 -0.08723107 0.09943985 -0.29168802 -0.33022696 -0.49253342
-0.7560858 -0.08760088 -0.18049458 -0.0007501391 -0.2991497 -0.44035882 -0.06210342 -0.32461512
-0.81458 -0.75624424 0.13810223 -0.004497156 -0.019093214 -0.0018309328 -0.5615495 -0.41082036
-0.1264569 -1.0239688 -0.4793516 -0.31281787 -0.08789359 0.09466572 -0.8306929 -0.020129777
-0.37367252 -0.62047786 -0.027940502 -0.4503363 0.041440867 -0.3373182 0.06222653 -0.050500702
-0.7659933 -0.29652658 -0.7313487 0.0041938527 0.0020908674 -0.18628435 -0.23303552 -0.96385443
-0.9991692 -0.37203678 -0.32597864 -0.5034523 -0.61686623 -0.0522925 -0.036952537 0.03870895
00000000: d3f8 85be dbe1 613d 1b2a b3bb d79d 13bf
00000010: fcb4 babd 3779 b13b 6b32 10bc ec7f 6dbf
00000020: 8916 c7be b41e 0ebf b09a 01bf 87bb a4bd
00000030: 3ed2 11bf 0310 f63b 07b7 2abe e34f a6be
00000040: d1ca 59be 023c 99bf eccc 0b3e 90b6 3abf
00000050: 2dc9 87be 9804 3abf a5ec 73bf 3604 82be
00000060: 9fbb 25be f0dc 1bbe 0c80 14bf dd29 593e
00000070: 2b87 37bd 7771 f9be e555 12bf e821 123d
00000080: 416d cabe e16a 7bbf cb43 87be 97ed b4be
00000090: 1f9a 06bf 9551 b4bd 9ecd dabe 4789 c9be
000000a0: 4bea 3cbf 6210 1ebf 0898 9cbe 7336 763d
000000b0: 443d c7be 90ec bcbb 2293 8dbf 7b45 8dbe
000000c0: 29b7 8cbd a632 aebf dcb2 38bd 9ef8 b7be
000000d0: f33d 87be 07fd 10be 7b26 60bf eb0f 58bd
000000e0: 68ae 723b f9e7 4bbf 80a9 16be 23d2 cabe
000000f0: c87f 95bf a092 82bf df93 45bf 88df 46be
00000100: 261c 97be fd74 e2bb a32b d1bc e309 54be
00000110: 619e 373d a615 c9bf cc42 fdbd 31dd 72be
00000120: 1503 efbe 79e1 22be 6b23 f7bd 83ea 24be
00000130: eae6 64bf fa84 b2bc a9c3 22bf e688 0bbf
00000140: 23f7 49bf 66be 3e3d ff17 da3d 7173 51be
00000150: ad9c e5b9 ef4d 40be cab7 353a 44d5 6bbc
00000160: 681c 6cbe d136 0dbe 57f8 2fbf d9a0 40bf
00000170: 07bb 3bbd bf66 66be 81b5 97bf 151b 92be
00000180: 66c5 0cbf 246b 5bbe 81a7 04bd a3b3 d6be
00000190: d6c1 2bbf 8f0c fbbe 848d d1bd 5a9d e9be
000001a0: 950a 713d 593b 93be 28a3 b3be 1d03 d7be
000001b0: 9f88 d8be 9cb6 46bf c298 37bc 3ab9 29bf
000001c0: 0990 98bf cdbc edbe 9b79 14bf 6c79 febe
000001d0: ab35 8ebd 997d 41be 555a b93d 4dd5 1a3d
000001e0: c1c3 30bf ef2a 5abf 7d28 e0bf 6f6a 5ebb
000001f0: b5fc d13d 3618 ecbe a61c 4ebe 59e8 a0bc
00000200: 402e 163c 5078 e0be 9a69 46be e5c0 f8be
00000210: f72d 13bf dc33 f0be 6205 e5bd a8c6 3abf
00000220: 8d68 b9be 2dac 4abe 5407 38bd d04a 1cbe
00000230: 7a83 0cbc b2e1 0bbb 9ebb 92bb 857d 933d
00000240: fb1b 32be efd7 3bbf d227 36be 6d57 2bba
00000250: 695a 8639 7a64 1fbd 4051 94be f467 22bd
00000260: 10b7 75bf d455 1abe 1596 86be 7419 213d
00000270: b744 95bc f6f7 c1be 801e 0cbf 2298 c2bc
00000280: edb8 43be ba5d 4dbf 361f 89be 71d1 023d
00000290: cc73 60be 287f 183d 2937 20be 4cf6 5cbf
000002a0: 9afd 45bf 051c 5cbe b619 87bf 9158 1bbe
000002b0: 4829 483c a1af babe 357a a8be b598 30bf
000002c0: ab2b d4be ae1a 3abe 1516 4bbe 9f05 33bf
000002d0: 53c2 c0bf ef24 71bc 00e0 543e f732 82be
000002e0: 5504 efbe 583f e53c 28b7 4fbd c94b 10bd
000002f0: a1f8 4abe fba9 25bf 72fb f3be 9ea6 303d
00000300: f2ee 83bc 4dbb 75be 6cb9 683d 595f 56bf
00000310: 4a69 4b3d 13dc bebe eb0b bcbf 436d 23bf
00000320: 5b76 5dbe 070d cbbd 5035 5abe 34a6 b2bd
00000330: 1fa7 cb3d 2258 95be 8213 a9be 572d fcbe
00000340: d78e 41bf 1768 b3bd 92d3 38be fca4 44ba
00000350: 262a 99be b676 e1be 2860 7ebd f433 a6be
00000360: 5188 50bf 3999 41bf ac6a 0d3e e15c 93bb
00000370: 5f69 9cbc e9fb efba b5c1 0fbf 0c57 d2be
00000380: eb7d 01be 6911 83bf 936d f5be aa29 a0be
00000390: 8e01 b4bd 1ae0 c13d 4aa8 54bf 34e7 a4bc
000003a0: 0152 bfbe a3d7 1ebf 7be3 e4bc 7b92 e6be
000003b0: e6bd 293d f9b4 acbe 3fe1 7e3d d3d9 4ebd
000003c0: 2318 44bf 55d2 97be ab39 3bbf 966c 893b
000003d0: ef06 093b 53c1 3ebe dda0 6ebe 2abf 76bf
000003e0: 8dc9 7fbf 9b7b bebe ace6 a6be 40e2 00bf
000003f0: f2ea 1dbf a930 56bd 8b5b 17bd 478d 1e3d

layers.1.weight f4 [256, 256]
0.024879148 0.03544764 -0.022185227 0.028392695 -0.025930671 -0.05956393 0.017447295 0.057435997
-0.0016910122 -0.03026319 -0.047497746 0.0121363215 -0.030771272 -0.037768073 0.035206296 0.019005649
0.0011554637 0.020369235 -0.034143426 0.030542523 -0.0470433 0.046397142 0.02943504 -0.05028959
0.038690653 -0.05710478 -0.021270996 0.009507112 0.021878272 -0.003241075 -0.03462752 -0.07446104
0.019046199 -0.0022876896 -0.029038073 -0.0055870526 -0.046989754 -0.0040198956 -0.027545728 -0.06925652
-0.02664649 -0.060987696 -0.0008731628 -0.015584194 -0.014865972 0.020429203 -0.057200994 0.029342184
0.03567061 0.009777885 -0.04300756 0.026720492 -0.063778885 0.0035693296 -0.03174436 0.004073593
0.03610891 -0.06707526 -0.04200882 0.044150192 -0.0249781 -0.065962635 0.018663194 -0.07776418
-0.048337463 -0.047669664 5.8893664e-05 -0.04450206 -0.03240499 0.016949844 0.03504271 -0.050124116
-0.06363218 -0.07753453 -0.032017656 -0.014671476 -0.05986576 -0.070131846 -0.0031603654 0.008832727
-0.0061812196 -0.030824963 -0.020020423 0.02497838 0.026218364 -0.048312202 -0.06144345 -0.019358553
0.03814999 0.011745237 0.04174842 0.042005736 -0.07306611 -0.075510025 -0.036969323 -0.008869316
-0.06492801 0.03547512 -0.03216414 0.014138679 -0.010972117 -0.0044541326 0.04295181 0.009572106
0.0194832 -0.012628591 -0.05892482 0.029250467 -0.06875972 0.018283136 0.0019007422 -0.067928754
0.009544271 0.039384972 0.0389052 -0.069502555 0.018144378 -0.01433788 -0.050479703 -0.00849039
0.021547163 0.04580783 -0.051725857 0.0054889824 0.027539076 0.030316237 -0.025340129 0.031967837
0.027438615 0.008299183 0.011005967 -0.029614307 -0.021906767 0.031977575 -0.061054718 -0.06084926
-0.035830703 0.02837871 -0.01597481 -0.016747205 -0.02347406 -0.011935908 0.012095472 -0.042474512
0.04674585 -0.07519355 0.022155205 -0.035008844 0.019612517 -0.025635395 -0.039687537 0.018321818
-0.051508177 -0.061513938 0.0035552462 -0.05477433 -0.06750993 0.034023397 -0.0059234924 0.007229223
-0.032232974 0.026259035 -0.015286947 -0.057013728 0.014194584 -0.023011317 0.0046892315 0.011510108
-0.03326869 -0.0058035725 -0.037539434 0.007485517 -0.0095748175 0.034042448 -0.038253047 0.047694597
-0.039506197 0.0160516 -0.054585434 -0.061879788 0.0401678 0.008341178 -0.066738695 -0.034673844
-0.04771957 -0.05911811 -0.056760345 0.027506093 0.021397518 -0.014023941 -0.049118232 0.03995481
-0.052933764 -0.080280796 -0.009932217 -0.079676546 -0.054499593 0.0034547348 -0.038210873 0.0034222044
0.050532803 -0.0368955 0.026732247 -0.0711586 0.050484113 -0.02482691 -0.030416809 -0.044101723
0.0096518835 0.012167631 -0.043423522 -0.06380621 -0.046983503 -0.044428375 0.04503621 0.035767216
0.0014823845 -0.05312438 -0.05073729 -0.0036224972 -0.011077167 0.00103982 -0.05750009 0.04404838
-0.06994614 -0.028906671 0.031630788 -0.0805057 0.040483467 0.0056673135 0.0028871475 -0.01859674
0.030072894 -0.02003456 -0.07701882 0.022451814 0.008217479 0.052280985 -0.036768064 0.0019128915
0.043917295 -0.0031387643 -0.011565162 -0.0190758 -0.02502556 0.009009627 -0.06519655 0.032930646
-0.031159524 0.050283767 0.0125663625 -0.0052484884 -0.03553999 -0.04589876 0.04379805 0.03462966
00000000: 5bcf cb3c 8b31 113d cbbd b5bc cc97 e83c
00000010: 8f6c d4bc 4ff9 73bd a1ed 8e3c 0242 6b3d
00000020: f4a4 ddba 82ea f7bc ff8c 42bd 6cd7 463c
00000030: 0914 fcbc b2b2 1abd 7a34 103d bcb1 9b3c
00000040: ee72 973a 62dd a63c fad9 0bbd 5034 fa3c
00000050: 7ab0 40bd ee0a 3e3d c121 f13c 75fc 4dbd
00000060: 177a 1e3d b4e6 69bd 8340 aebc b8c3 1b3c
00000070: 103a b33c 3768 54bb 96d5 0dbd 087f 98bd
00000080: c606 9c3c 10ed 15bb 41e1 edbc 9813 b7bb
00000090: 5478 40bd 54b9 83bb 94a7 e1bc 5dd6 8dbd
000000a0: bd49 dabc 3cce 79bd f7e4 64ba d954 7fbc
000000b0: 6890 73bc 255b a73c 974b 6abd 055f f03c
000000c0: 581b 123d 6c33 203c b228 30bd efe4 da3c
000000d0: 819e 82bd 6aeb 693b 6006 02bd c67b 853b
000000e0: f0e6 133d c15e 89bd 7111 2cbd d5d6 343d
000000f0: df9e ccbc 6b17 87bd 8ee3 983c d442 9fbd
00000100: 81fd 45bd 4441 43bd 9704 7738 cb47 36bd
00000110: 18bb 04bd 66da 8a3c f288 0f3d f24e 4dbd
00000120: 9751 82bd 6cca 9ebd f224 03bd a160 70bc
00000130: cd35 75bd 49a1 8fbd 221e 4fbb 24b7 103c
00000140: d48b cabb a284 fcbc df01 a4bc 769f cc3c
00000150: e5c7 d63c 04e3 45bd 21ac 7bbd d495 9ebc
00000160: 2a43 1c3d 186f 403c 6400 2b3d 350e 2c3d
00000170: afa3 95bd 00a5 9abd 256d 17bd 9c50 11bc
00000180: faf8 84bd 5c4e 113d 8cbe 03bd eba5 673c
00000190: 65c4 33bc f9f3 91bb 3dee 2f3d 53d4 1c3c
000001a0: 3b9b 9f3c 26e8 4ebc 275b 71bd ad9e ef3c
000001b0: e5d1 8cbd 84c6 953c 5322 f93a 3b1e 8bbd
000001c0: 935f 1c3c 2352 213d 0f5b 1f3d 5b57 8ebd
000001d0: 85a3 943c 6de9 6abc cec3 4ebd 471b 0bbc
000001e0: ad83 b03c fea0 3b3d 7ede 53bd ecdc b33b
000001f0: a199 e13c c259 f83c 1a96 cfbc b5f0 023d
00000200: f2c6 e03c 4cf9 073c 5f52 343c b499 f2bc
00000210: d275 b3bc ebfa 023d 8314 7abd 133d 79bd
00000220: 37c3 12bd 787a e83c 9bdd 82bc 6f31 89bc
00000230: ac4c c0bc d48e 43bc 162c 463c c1f9 2dbd
00000240: 9478 3f3d 13ff 99bd d57e b53c 6f65 0fbd
00000250: 6eaa a03c 5201 d2bc 668f 22bd a317 963c
00000260: 3dfa 52bd 0af6 7bbd 22ff 683b 0c5b 60bd
00000270: a542 8abd 1e5c 0b3d db19 c2bb 1ee3 ec3b
00000280: b906 04bd 301d d73c 1a76 7abc 3a87 69bd
00000290: 6790 683c 3b82 bcbc 20a8 993b e494 3c3c
000002a0: c044 08bd e52b bebb f3c2 19bd 1149 f53b
000002b0: b2df 1cbc 1870 0b3d 3aaf 1cbd 695b 433d
000002c0: 40d1 21bd a57e 833c fa94 5fbd a975 7dbd
000002d0: fe86 243d 70a9 083c 4cae 88bd 2906 0ebd
000002e0: 9975 43bd d525 72bd 897d 68bd 7554 e13c
000002f0: d949 af3c acc4 65bc 3330 49bd a8a7 233d
00000300: 13d1 58bd 426a a4bd bdba 22bc 752d a3bd
00000310: f73a 5fbd d568 623b 0183 1cbd 1047 603b
00000320: 7cfb 4e3d bc1f 17bd 96fd da3c 9abb 91bd
00000330: 6ec8 4e3d ce61 cbbc ac2c f9bc 02a4 34bd
00000340: ef22 1e3c be5a 473c dddc 31bd d5ac 82bd
00000350: c671 40bd 87fa 35bd e477 383d a580 123d
00000360: 924c c23a f398 59bd e8d1 4fbd 6b67 6dbb
00000370: 017d 35bc 924a 883a 3785 6bbd 136c 343d
00000380: ec3f 8fbd afcd ecbc 498f 013d 2ce0 a4bd
00000390: fed1 253d dfb4 b93b 4c36 3d3b 3158 98bc
000003a0: 6e5b f63c 841f a4bc 0bbc 9dbd deec b73c
000003b0: 9ba2 063c 9624 563d 1c9a 16bd fdb9 fa3a
000003c0: 9fe2 333d bab3 4dbb ce7b 3dbc da44 9cbc
000003d0: 6702 cdbc 1d9d 133c c585 85bd 49e2 063d
000003e0: 4242 ffbc 5af6 4d3d 25e3 4d3c 83fb abbb
000003f0: 6192 11bd 5700 3cbd 9665 333d d5d7 0d3d

layers.1.bias f4 [256]
-0.06464396 -0.1806268 -0.07728546 -0.028625919 0.06746118 -0.56993115 0.2929956 0.107966535
-0.46332318 -0.07084078 0.08188181 -0.5649315 -0.13472444 -0.0061389753 -0.24426746 -1.4817196
-0.003946557 0.0044524116 -0.2506735 -0.048157066 -0.24914508 0.0059453263 -0.15966785 0.071142085
-0.7319534 -0.0829975 -0.3049394 -0.0536188 -1.049904 -0.6220149 0.07014554 -0.08093939
0.13350551 -0.27585867 -0.057880014 0.23283297 -0.008144965 0.06349222 -0.06879768 -0.9621937
0.44344974 -0.07000958 -0.014022021 -0.047114342 -0.080617085 0.315207 0.39415213 -0.5499632
0.0055286665 -0.19436891 0.1086096 -0.4025433 -0.021500295 0.18506679 0.31494182 -0.13296759
-0.3175761 -0.13540228 -0.16013399 0.1074541 -0.04055625 -0.10228539 -0.12563783 0.104893796
-0.028760176 0.3827821 -0.30191445 -0.51428944 -0.2525825 -0.1829016 -0.69275725 0.15639439
-0.25922033 -0.7810216 -0.031907458 0.46544155 -0.27690038 0.16882746 -0.62020904 -0.09212704
0.15296616 -0.2991218 0.052827947 0.1422268 -0.26650563 -0.963628 0.26618156 -0.7327474
0.16997088 -0.07034382 -0.26847345 -0.5009248 -0.15533133 0.12464666 0.20928237 0.09412167
-0.07964278 -0.25245544 0.21174131 -0.25716257 -0.48373324 0.21195409 -1.0734911 0.4455742
0.34520647 0.17529961 -0.3906456 0.093738906 0.2677117 -0.6217433 -0.042863823 -0.05692816
-0.1432985 -0.35065556 0.14345537 -0.09394658 0.20801055 0.13163887 0.08056469 0.24485852
-0.9429565 -0.8533831 0.21102016 -0.6695403 -0.33234227 -0.15117246 -0.8504976 -0.077822976
-0.073863536 0.05760147 -0.75983554 -0.26825067 -0.045585047 0.07723903 -0.7164858 0.24232925
-0.094945304 0.027490353 -0.244166 -1.0205306 -0.42707416 -0.08558543 -0.55905354 -0.4080851
-0.5417505 -0.12628028 -0.37003106 -0.07052998 -0.17592026 0.035219014 -0.002284302 0.31876066
-0.4190404 -0.31516773 0.55481946 0.06994085 -0.24016586 -0.06652904 0.54877096 -0.31531996
-0.04610527 -0.10259382 -0.28747857 -0.25062743 0.50672334 -0.6010723 -0.03740561 -0.25766513
0.0016461577 -0.47544825 -0.68582004 0.21299215 -0.7069568 -0.09125723 0.9121846 -0.06567766
-0.3433338 0.0699385 -0.01922243 0.11527414 -0.06684802 -0.021467462 -0.74226695 -0.6090585
-1.1267055 0.0046902467 -0.20275608 -0.20943771 -0.14486581 -0.05205947 -0.5208403 -0.0198217
-0.33272406 -0.2420512 0.0077877687 -0.13626431 -0.16420375 -0.3747705 -0.0913254 -0.06640228
0.061026566 0.20592381 -0.05638304 0.35280922 -0.2520048 -0.4218892 0.052154824 0.009088957
-0.4862159 -0.15257888 -0.03578273 0.3430929 -0.6418511 -0.2684029 -0.4619296 0.12531368
-0.6695894 0.10940399 0.24620757 -0.3622647 0.0072018327 0.09268715 -0.7646675 0.02782253
-0.086170904 -0.2708861 -0.48158452 -0.44503304 -0.30883336 -0.017288871 -0.6301819 -0.06425267
0.18348636 -0.31438595 0.12009975 -0.00048015366 -0.046329975 -0.23740433 -0.4698437 -0.039880503
-0.30441824 -0.24125081 0.24203531 -0.09018629 -0.53625715 -0.34477678 -0.48023012 -0.32421687
0.15861623 -0.80479664 -0.15519387 0.18283284 0.39012122 -0.71687686 -0.030599657 -0.13041386
00000000: 0d64 84bd 3bf6 38be d747 9ebd e780 eabc
00000010: 1629 8a3d 02e7 11bf 8503 963e 8f1d dd3d
00000020: b238 edbe f914 91bd a7b1 a73d 5a9f 10bf
00000030: 34f5 09be 7529 c9bb 4021 7abe fda8 bdbf
00000040: 1f52 81bb 89e5 913b 4758 80be 5840 45bd
00000050: e31f 7fbe 03d1 c23b f87f 23be f1b2 913d
00000060: 4c61 3bbf 98fa a9bd 0421 9cbe 639f 5bbd
00000070: 4163 86bf 5e3c 1fbf 77a8 8f3d 8dc3 a5bd
00000080: abb5 083e 593d 8dbe 9813 6dbd c46b 6e3e
00000090: 7672 05bc 3608 823d cce5 8cbd 5452 76bf
000000a0: d80b e33e 2f61 8fbd 9ebc 65bc f8fa 40bd
000000b0: 921a a5bd d062 a13e 4fce c93e 63ca 0cbf
000000c0: d129 b53b a508 47be b66e de3d 281a cebe
000000d0: 6321 b0bc 2682 3d3e 0e40 a13e a828 08be
000000e0: 5699 a2be e5a6 0abe 2afa 23be e510 dc3d
000000f0: 4f1e 26bd 017b d1bd 34a7 00be 8fd2 d63d
00000100: 769a ebbc 04fc c33e 8894 9abe 79a8 03bf
00000110: 7e52 81be 8f4a 3bbe 8a58 31bf da25 203e
00000120: 87b8 84be 08f1 47bf 65b1 02bd 5b4e ee3e
00000130: e3c5 8dbe 1be1 2c3e 05c6 1ebf 1aad bcbd
00000140: 29a3 1c3e 7e26 99be 1e62 583d e7a3 113e
00000150: 6d73 88be 53b0 76bf f348 883e 5595 3bbf
00000160: d90c 2e3e 6c10 90bd 5a75 89be 9c3c 00bf
00000170: 2d0f 1fbe c046 ff3d 1e4e 563e ddc2 c03d
00000180: c11b a3bd d741 81be b7d2 583e d0aa 83be
00000190: e2ab f7be 7e0a 593e 2868 89bf 4d22 e43e
000001a0: e7be b03e be81 333e b302 c8be 2ffa bf3d
000001b0: 8211 893e 922a 1fbf fa91 2fbd 812d 69bd
000001c0: d8bc 12be 2089 b3be f7e5 123e 1167 c0bd
000001d0: b800 553e 57cc 063e 1aff a43d 31bc 7a3e
000001e0: 9965 71bf 5177 5abf ab15 583e fe66 2bbf
000001f0: c428 aabe f4cc 1abe 36ba 59bf a761 9fbd
00000200: c445 97bd 85ef 6b3d 9584 42bf 2758 89be
00000210: 63b7 3abd 7f2f 9e3d 9d6b 37bf 2925 783e
00000220: af72 c2bd 7333 e13c a706 7abe bfa0 82bf
00000230: 77a9 dabe 6a47 afbd 221e 0fbf 88f0 d0be
00000240: 29b0 0abf 9e4f 01be b674 bdbe 0672 90bd
00000250: 7124 34be d041 103d 3ab4 15bb 9934 a33e
00000260: 778c d6be aa5d a1be a608 0e3f 263d 8f3d
00000270: 0aee 75be 6140 88bd 417c 0c3f 9e71 a1be
00000280: e1d8 3cbd b51c d2bd 6430 93be 3d52 80be
00000290: 9fb8 013f e0df 19bf a036 19bd afec 83be
000002a0: e3c3 d73a f46d f3be e791 2fbf 9d1a 5a3e
000002b0: 1ffb 34bf 12e5 babd ee84 693f 0282 86bd
000002c0: 73c9 afbe eb3b 8f3d 5c78 9dbc d914 ec3d
000002d0: 9de7 88bd 88dc afbc 3505 3ebf 42eb 1bbf
000002e0: e337 90bf a4b0 993b 4a9f 4fbe d776 56be
000002f0: b457 14be 503c 55bd ca55 05bf 1e61 a2bc
00000300: cf5a aabe 45dc 77be 8a30 ff3b df88 0bbe
00000310: 0725 28be ebe1 bfbe d008 bbbd ebfd 87bd
00000320: fef6 793d b1dd 523e e7f1 66bd 69a3 b43e
00000330: c606 81be dc01 d8be 4ca0 553d d9e9 143c
00000340: 4af1 f8be a33d 1cbe e990 12bd dfa9 af3e
00000350: 5b50 24bf 1b6c 89be 0982 ecbe 3b52 003e
00000360: 366a 2bbf 330f e03d d61d 7c3e c27a b9be
00000370: 5afd eb3b c3d2 bd3d 40c1 43bf 13ec e33c
00000380: 5f7a b0bd 95b1 8abe 3f92 f6be 5fdb e3be
00000390: 681f 9ebe 64a1 8dbc 9a53 21bf e796 83bd
000003a0: d9e3 3b3e 32f7 a0be dcf6 f53d 22bd fbb9
000003b0: 80c4 3dbd 1f1a 73be 5a8f f0be bd59 23bd
000003c0: b5dc 9bbe 740a 77be 1bd8 773e 97b3 b8bd
000003d0: 2648 09bf 9586 b0be b9e0 f5be c1ff a5be
000003e0: 4b6c 223e 2707 4ebf 24eb 1ebe 8838 3b3e
000003f0: f8bd c73e 3e85 37bf 22ac fabc 368b 05be

layers.2.weight f4 [3, 256]
-0.031130152 -0.05107395 -0.9852493 -0.04077346 -0.006186277 -0.054589394 -0.0031211774 0.054498047
0.54035074 -0.30347592 -0.08822013 -0.24052952 0.091119796 0.0788732 -0.07041213 0.3574556
-0.021667128 -0.009121071 0.8592045 -0.07029065 -2.40846 -0.71578306 0.119975686 -0.11542295
0.7534423 0.011087885 -0.09905555 -0.054150578 0.92099947 0.30726615 0.074179366 -0.17154136
-0.11149941 -0.05433206 -0.028655307 0.31214765 0.54088014 -0.22911519 -0.15533446 -0.011271281
0.0072973664 -0.013890388 -0.05070966 -0.031269163 0.039376438 0.010180811 0.023519013 0.19115497
-0.014118311 0.41707715 -0.047409873 0.08639161 0.10415702 -0.0457657 0.0014098792 -0.071747065
-0.31952018 -0.034882788 -0.112408385 -0.047952347 -0.02839104 0.073570564 -0.016583705 -0.02373349
-0.046939977 -1.1362606 0.011808852 0.013085489 -0.2669764 -0.04034549 -1.4890486 0.04579799
0.14293544 -2.7515318 0.12073784 -0.8303968 0.020040758 -0.09608811 -1.5146106 -0.054787878
-0.18044686 -0.26072928 0.20590493 0.98179555 -0.10464053 1.4211656 -0.7475974 0.9914188
0.42377546 0.11882381 0.5033557 -0.72942406 -0.04781403 -0.09660163 -0.0135046225 -0.016652493
0.09550118 1.3558547 -0.028553244 -0.012247131 0.23713915 -0.14454027 -0.14207838 0.0012900826
0.0012135833 -0.07552818 1.6166564 0.056635674 0.022692788 -0.07953107 0.20116779 0.12634592
-0.035772935 0.39082766 -0.09794052 0.04399766 0.050143883 -0.3613926 0.02533165 -0.11051732
0.36270353 0.21753499 -0.32520306 -0.2469011 0.07028365 -0.07895227 -0.16159289 0.042923614
0.0044043083 -0.041906267 0.01812865 0.0015170048 -0.0035856417 -0.0686632 -0.29668793 -0.24124616
0.70380926 0.04615293 0.0024606274 -0.1403993 0.13405743 -0.037421722 0.014029206 0.110143885
0.1907107 -0.036222715 0.098318405 0.005574062 -0.45527616 -0.055098753 -0.10054136 -0.09617852
-0.69386727 0.22958936 0.010801326 -0.13922337 -0.4701079 0.24094433 -0.09907397 3.3108077
-0.05265643 -0.17041185 0.02034193 0.14734946 0.037628077 0.23390393 0.055907752 -0.13698496
0.007891214 0.11074904 -0.7851921 -0.11634959 0.03912087 -0.1099452 -0.04060752 0.08500392
0.522482 0.014010153 -2.9227731 -1.7615176 0.064225905 -0.10972672 1.3011655 -0.05587202
0.008831097 0.031348247 0.34011367 0.012408072 0.018803904 0.022930522 -0.11060747 -0.028850067
-0.049853235 0.39112335 0.1312197 0.07568973 0.18734363 -1.5948961 -0.03693361 -0.21290523
-0.009704915 -0.28068426 -0.14193866 0.110170715 -0.09638884 -0.3838024 -0.076223806 -0.0169333
-0.07625564 0.1088438 0.102940366 0.11785634 -2.6065683 -0.28844765 0.14170428 -0.026560394
-0.31187862 0.08771419 -0.011114072 -0.097358584 -0.06960626 0.07705273 -0.115144044 0.0047042817
-0.06382339 -0.2911054 0.061683584 0.0041655544 0.15852992 0.03849054 -0.63136697 0.022734474
-0.023030255 -0.21043672 0.11291858 -0.0155939525 0.00083667145 -0.019163586 0.06457803 -0.045145284
0.20424394 -0.61864424 -0.0322606 0.0021036812 0.13531718 -0.0432348 0.75637007 -0.035918172
0.17455402 -0.09872782 -0.15954918 -0.084927484 -0.05777799 -0.20409128 -0.05059599 -0.019023545
00000000: a904 ffbc eb32 51bd 4c39 7cbf 1202 27bd
00000010: 41b6 cabb 2199 5fbd ab8c 4cbb 5839 5f3d
00000020: 6d54 0a3f 3261 9bbe c1ac b4bd 5f4d 76be
00000030: 049d ba3d 4688 a13d 3c34 90bd 6c04 b73e
00000040: 437f b1bc 8b70 15bc d3f4 5b3f 8bf4 8fbd
00000050: 3524 1ac0 8f3d 37bf d0b5 f53d de62 ecbd
00000060: 98e1 403f f6a9 353c a3dd cabd ffcc 5dbd
00000070: 9fc6 6b3f fd51 9d3e 5aeb 973d 8aa8 2fbe
00000080: cd59 e4bd 4b8b 5ebd 89be eabc d1d1 9f3e
00000090: 1f77 0a3f 2c9d 6abe ff0f 1fbe 2eab 38bc
000000a0: bf1e ef3b 8394 63bc efb4 4fbd 1814 00bd
000000b0: 3049 213d 6bcd 263c f2aa c03c 21be 433e
000000c0: 7d50 67bc 238b d53e db30 42bd 16ee b03d
000000d0: 4750 d53d d174 3bbd b2cb b83a 20f0 92bd
000000e0: 2698 a3be 41e1 0ebd 5e36 e6bd ae69 44bd
000000f0: 5494 e8bc 2aac 963d 8dda 87bc bc6c c2bc
00000100: 2244 40bd fd70 91bf ea79 413c 8564 563c
00000110: 21b1 88be 5041 25bd 2599 bebf ac96 3b3d
00000120: ab5d 123e 1919 30c0 6745 f73d e294 54bf
00000130: 842c a43c d8c9 c4bd c3de c1bf 4169 60bd
00000140: 10c7 38be 4f7e 85be bed8 523e f456 7b3f
00000150: c64d d6bd c1e8 b53f 8b62 3fbf 9fcd 7d3f
00000160: 19f9 d83e e659 f33d ebdb 003f 89bb 3abf
00000170: a5d8 43bd 13d7 c5bd 7e42 5dbc cf6a 88bc
00000180: 1f96 c33d a68c ad3f 7ee8 e9bc 31a8 48bc
00000190: 9bd4 723e 5d02 14be ff7c 11be fd17 a93a
000001a0: 1911 9f3a 85ae 9abd 99ee ce3f cffa 673d
000001b0: 3ae6 b93c 30e1 a2bd eefe 4d3e d360 013e
000001c0: a486 12bd 901a c83e 0a95 c8bd e436 343d
000001d0: ac63 4d3d 7308 b9be 5284 cf3c e856 e2bd
000001e0: 47b4 b93e 7ec1 5e3e 0481 a6be a4d3 7cbe
000001f0: e0f0 8f3d bab1 a1bd 9b78 25be acd0 2f3d
00000200: 0452 903b e8a5 2bbd 8982 943c 3cd6 c63a
00000210: 16fd 6abb 4b9f 8cbd 7be7 97be 3c09 77be
00000220: d82c 343f db0a 3d3d 7a42 213b d6c4 0fbe
00000230: 5a46 093e 8547 19bd c1da 653c 1e93 e13d
00000240: aa49 433e 455e 14bd 295b c93d 9fa6 b63b
00000250: f519 e9be 3baf 61bd a1e8 cdbd 3ef9 c4bd
00000260: 49a1 31bf 7919 6b3e 0bf8 303c 9290 0ebe
00000270: fcb1 f0be 1cba 763e 4be7 cabd 46e4 5340
00000280: 45ae 57bd 7280 2ebe 1fa4 a63c c7e2 163e
00000290: e61f 1a3d 8384 6f3e 87ff 643d c945 0cbe
000002a0: 274a 013c 65d0 e23d 5902 49bf b248 eebd
000002b0: 353d 203d f32a e1bd 1254 26bd 8916 ae3d
000002c0: 61c1 053f d78a 653c b70e 3bc0 6979 e1bf
000002d0: df88 833d 67b8 e0bd 978c a63f 0fda 64bd
000002e0: 4eb0 103c 0567 003d 6123 ae3e 3a4b 4b3c
000002f0: a50a 9a3c cad8 bb3c 2b86 e2bd fa56 ecbc
00000300: e832 4cbd 5241 c83e 755e 063e 3803 9b3d
00000310: 02d7 3f3e 8e25 ccbf b247 17bd d403 5abe
00000320: 5d01 1fbc d9b5 8fbe 5e58 11be 2fa1 e13d
00000330: 8367 c5bd c081 c4be 3a1b 9cbd b4b7 8abc
00000340: eb2b 9cbd 80e9 de3d 66d2 d23d aa5e f13d
00000350: 04d2 26c0 69af 93be ed1a 113e 2f95 d9bc
00000360: 8eae 9fbe 7fa3 b33d cc17 36bc f063 c7bd
00000370: ba8d 8ebd d2cd 9d3d a4d0 ebbd 6026 9a3b
00000380: d6b5 82bd c40b 95be eda7 7c3d 347f 883b
00000390: ab55 223e 42a8 1d3d 44a1 21bf a63d ba3c
000003a0: f2a9 bcbc b97c 57be db41 e73d c77d 7fbc
000003b0: 1254 5b3a f4fc 9cbc 7c41 843d 43ea 38bd
000003c0: 5325 513e 785f 1ebf b123 04bd eadd 093b
000003d0: 9690 0a3e f916 31bd 78a1 413f ef1e 13bd
000003e0: 4abe 323e d031 cabd dc60 23be 76ee adbd
000003f0: 9da8 6cbd 4efd 50be be3d 4fbd 44d7 9bbc

layers.2.bias f4 [3]
0.13300586 -0.056391682 0.20372984
00000000: b032 083e f7fa 66bd 8e9e 503e

layers.3.weight f4 [3, 256]
-0.032337144 0.07096322 1.1460748 0.030117769 0.51670146 0.14105591 0.055130795 0.0928069
0.87979966 -0.7421819 0.12541415 0.14370959 0.062197093 0.115874186 0.58248377 0.80227816
0.018882563 -0.07722251 0.2873292 0.49918044 -0.8358555 0.47969395 0.007337066 0.2587281
1.10745 0.01858817 -0.12282625 0.04153846 0.5191277 0.12931724 -0.07152541 0.108839445
0.12820041 0.012963468 0.18111947 0.91922593 0.19920331 0.34588915 0.057210494 0.2811071
-0.50331765 0.042139184 0.03703865 0.040201247 -0.04437314 0.042832125 0.07218008 0.030065726
3.7339098e-05 0.4884615 0.16938283 0.20738868 0.03423978 -0.25415102 -0.085377865 -0.18715544
0.24529675 0.14705963 0.18973227 0.15805721 -0.1426764 -0.028096499 0.02135378 0.04797985
0.048732534 1.1886605 -0.027481463 0.071779914 0.17560667 0.5730231 0.4618186 -0.04964814
-0.1771222 1.5275264 0.11114806 0.668737 0.022462854 0.058033876 1.5453542 0.085639946
0.1992534 0.2212819 0.09027374 -0.77559483 0.48110986 0.7919839 0.080785066 0.6182863
0.28178144 0.15741567 0.07834859 0.33365512 -0.026159963 0.04221327 0.0040067616 0.016134638
0.23311713 0.44951126 0.08823264 0.0043314956 0.099793404 0.027502676 0.14189047 0.19821545
-0.0445037 0.07168184 0.5367294 -0.0065943385 0.17942862 0.028254487 0.10870447 0.34997603
0.64006096 0.3536103 0.113421045 0.011489568 -0.020454025 0.2479911 -0.0604575 0.07722011
-0.3778688 0.95601434 0.18550281 0.14858751 0.015405651 0.046197213 0.14925236 -0.05250666
0.025514731 -0.12768841 -0.089395076 -0.012304111 0.027954027 0.69371694 0.42965415 -0.117701784
0.36390623 -0.017358689 -0.03812457 0.37852487 0.09719844 0.026305536 0.0061576464 0.2157856
0.64968294 0.13982947 0.20033792 0.046698894 0.610288 -0.0014120864 0.23035415 0.14836979
0.54152775 0.78715515 0.03027712 0.08892711 -0.0043735593 -0.07165138 0.039915156 0.72060627
-0.04884875 0.061945077 0.11689449 0.0044294144 -0.10284937 0.71098804 0.016328711 0.29241383
-0.008049178 0.039712355 0.9000388 0.102445275 0.16941184 0.08409907 0.006897229 0.062442645
0.37518197 -0.3464593 1.2566926 0.75633985 0.12330735 0.1776081 0.40142316 0.11834573
0.20375589 0.21927193 0.38443804 0.05045237 0.11553195 0.019690655 -0.05540206 0.03724627
-0.031448763 0.57932925 0.10480279 0.20214303 0.035397127 -0.25262386 -0.035519797 0.13764869
0.073085636 0.06582176 0.3983312 0.0495921 -0.053377062 0.80716956 0.08218693 0.10929878
0.03189316 -0.14221536 -0.03471828 0.1156705 2.0485227 0.13721195 0.37433106 0.0061442256
0.31545368 0.053707846 -0.15229101 0.10085007 1.1234927 0.22341266 0.20385662 -0.010945956
0.092505 0.5927102 0.60265756 -0.03422896 -0.03933867 -0.005359172 0.23116818 0.016357783
0.034706812 0.121159725 0.100268096 0.00035521368 0.0018176046 -0.015989326 -0.027482968 -0.039057247
0.07633788 0.41842976 0.030973112 -0.069104165 -0.05730391 0.1164307 0.5064464 -0.022276118
0.77416134 -0.014363156 0.16253793 0.2431013 0.26654246 0.21148515 -0.008100939 -0.07652714
00000000: f473 04bd 2a55 913d 94b2 923f 8ab9 f63c
00000010: 8c46 043f f670 103e d4d0 613d 8b11 be3d
00000020: 8d3a 613f a2ff 3dbf 916c 003e 9b28 133e
00000030: 61c2 7e3d 724f ed3d a81d 153f 1a62 4d3f
00000040: 9baf 9a3c d626 9ebd d01c 933e 9494 ff3e
00000050: a0fa 55bf 729a f53e c56b f03b 0278 843e
00000060: ecc0 8d3f 3846 983c 548c fbbd 3b24 2a3d
00000070: 8ee5 043f bd6b 043e ea7b 92bd 37e7 de3d
00000080: f846 033e ba64 543c 6277 393e 6452 6b3f
00000090: f4fb 4b3e 6218 b13e 8d55 6a3d 45ed 8f3e
000000a0: 6dd9 00bf 239a 2c3d d7b5 173d 10aa 243d
000000b0: 9cc0 35bd bd70 2f3d 26d3 933d 664c f63c
000000c0: 8d9c 1c38 a017 fa3e b172 2d3e b35d 543e
000000d0: 033f 0c3d 1520 82be 97da aebd ada5 3fbe
000000e0: 122f 7b3e cd96 163e 2d49 423e c0d9 213e
000000f0: c319 12be a12a e6bc 1fee ae3c 8586 443d
00000100: c49b 473d 0726 983f ce20 e1bc 5901 933d
00000110: 3cd2 333e a4b1 123f 7d73 ec3e d95b 4bbd
00000120: 865f 35be fc85 c33f 98a1 e33d 5932 2b3f
00000130: 0504 b83c eeb4 6d3d 2bce c53f ff63 af3d
00000140: 1509 4c3e b997 623e 70e1 b83d 628d 46bf
00000150: 0854 f63e 75bf 4a3f a472 a53d 0348 1e3f
00000160: a845 903e 9331 213e 3a75 a03d d8d4 aa3e
00000170: 6b4d d6bc d2e7 2c3d 274b 833b ca2c 843c
00000180: 42b6 6e3e 5726 e63e 50b3 b43d 38ef 8d3b
00000190: 7c60 cc3d 4b4d e13c bc4b 113e fef8 4a3e
000001a0: 8349 36bd eecd 923d 1967 093f 5215 d8bb
000001b0: 23bc 373e f475 e73c 73a0 de3d 0f30 b33e
000001c0: 09db 233f 690c b53e 4b49 e83d be3e 3c3c
000001d0: 338f a7bc 61f1 7d3e 49a2 77bd 9425 9e3d
000001e0: 0578 c1be 5bbd 743f 73f4 3d3e 5327 183e
000001f0: fc67 7c3c 4a39 3d3d 9cd5 183e 3911 57bd
00000200: 4504 d13c c0c0 02be c414 b7bd 2f97 49bc
00000210: d8ff e43c 6f97 313f a1fb db3e a20d f1bd
00000220: eb51 ba3e cf33 8ebc 8228 1cbd 03ce c13e
00000230: fa0f c73d b57e d73c 15c6 c93b e6f6 5c3e
00000240: 9f51 263f 752f 0f3e 6225 4d3e 5747 3f3d
00000250: d63b 1c3f c215 b9ba f5e1 6b3e 40ee 173e
00000260: 90a1 0a3f 0083 493f b907 f83c 6b1f b63d
00000270: 1350 8fbb f5bd 92bd 137e 233d a779 383f
00000280: a015 48bd 1fba 7d3d 6166 ef3d 9f24 913b
00000290: b1a2 d2bd 5003 363f cac3 853c 44b7 953e
000002a0: b3e0 03bc 6ca9 223d f168 663f d4ce d13d
000002b0: 4c7a 2d3e 223c ac3d 2602 e23b dcc3 7f3d
000002c0: da17 c03e 1d63 b1be 4edb a03f 7d9f 413f
000002d0: 9088 fc3d e6de 353e 5687 cd3e 3f5f f23d
000002e0: 62a5 503e d288 603e 10d5 c43e 25a7 4e3d
000002f0: 049c ec3d 4c4e a13c 45ed 62bd 8b8f 183d
00000300: 6bd0 00bd ec4e 143f d8a2 d63d 95fe 4e3e
00000310: 94fc 103d ea57 81be 357d 11bd c7f3 0c3e
00000320: ecad 953d 8fcd 863d 11f2 cb3e 1621 4b3d
00000330: e8a1 5abd aaa2 4e3f 9f51 a83d 0ad8 df3d
00000340: 67a2 023d e7a0 11be c134 0ebd a8e4 ec3d
00000350: ff1a 0340 4a81 0c3e 52a8 bf3e 8055 c93b
00000360: 2583 a13e c2fc 5b3d 2df2 1bbe 7b8a ce3d
00000370: 9cce 8f3f 4ac6 643e cabf 503e ab56 33bc
00000380: 4373 bd3d dbbb 173f c447 1a3f aa33 0cbd
00000390: 9621 21bd fe9b afbb 5ab7 6c3e c200 863c
000003a0: bb28 0e3d 9722 f83d 5c59 cd3d f93b ba39
000003b0: b13c ee3a 0cfc 82bc f623 e1bc 7efa 1fbd
000003c0: 0957 9c3d 6d3c d63e 53bb fd3c 7c86 8dbd
000003d0: 81b7 6abd 3873 ee3d 79a6 013f 687c b6bc
000003e0: 702f 463f 7153 6bbc 5870 263e 8cef 783e
000003f0: 4178 883e 908f 583e cdb9 04bc 43ba 9cbd

layers.3.bias f4 [3]
-2.294508 -2.301279 -2.8973684
00000000: 38d9 12c0 2848 13c0 7c6e 39c0
