policy/pi.pth (torch, 288516 bytes, 8 tensors)

layers.0.weight f4 [256, 15]
000000 74 63 59 bf 69 7a c4 bf e9 b2 87 40 4d 23 c1 be
       -0.8491738 -1.5349857 4.2405896 -0.37722245
000010 6d 8c a7 be e1 0b 74 3e f5 97 80 bc 55 d3 fc bd
       -0.32724324 0.23832656 -0.015697459 -0.12344996
000020 fd 9a 1c bf f6 82 2f bb e1 7e e1 bb e2 c1 8a 3c
       -0.61173993 -0.002678094 -0.00688158 0.016938154
000030 38 6d d0 3c 8a 61 cb bd 09 82 71 be cf d2 5e 3f
       0.025442705 -0.099307135 -0.2358476 0.8704042
000040 13 8a 04 3f 00 ef 73 bf 6c d3 7c be 10 1a 56 3f
       0.51773185 -0.9528656 -0.24690026 0.8363352
000050 83 d9 78 bf c3 09 82 be 63 21 1f 3f 1c a8 89 3e
       -0.97206897 -0.25398073 0.6216032 0.2688607
000060 de e2 e3 bd 77 c1 e4 ba 0e 1b d1 3e 4e a4 a7 bd
       -0.11127256 -0.0017452677 0.40840954 -0.081856355
000070 10 66 2f 3f 7f 4e 99 3c 78 b4 16 3f 4d 81 e1 3f
       0.6851511 0.018714188 0.58869123 1.7617584
000080 b9 75 00 40 2c 03 c0 3e 61 d9 e9 3c 65 19 6b 3e
       2.0071852 0.3750242 0.028546037 0.22958906
000090 fe e2 df bb 73 ff 03 3e c4 d9 3d be 8d 48 15 bc
       -0.0068324795 0.12890415 -0.18540102 -0.009111536
0000a0 7f f1 ef 3a 4a 7f 13 bd b5 db 08 bd 0b 90 5c 3e
       0.0018306224 -0.036010064 -0.033412654 0.21539323
0000b0 56 76 19 be e4 44 38 bb f1 33 66 bf 5d 5d eb be
       -0.14986548 -0.0028117234 -0.89923006 -0.45969668
0000c0 69 59 a7 bd bb e1 06 bf e4 90 8f be 51 e8 30 3f
       -0.081713505 -0.5268819 -0.2804023 0.69104487
0000d0 c1 a8 db be b0 75 e4 be c1 ea 0a 3c c4 74 1e 3d
       -0.42902187 -0.44621038 0.008478821 0.038685575
0000e0 7e 25 00 3d c8 0f 26 3f 70 d8 03 bf 74 da 81 bd
       0.031285755 0.6486783 -0.5150213 -0.06340495
0000f0 c2 f7 a8 3f c8 3f a0 be 64 be 0f bf 3a bd 16 bf
       1.320061 -0.3129866 -0.5614989 -0.58882487
000100 bb 6d 00 3f eb bb 01 bf b2 50 93 3f 15 69 22 bf
       0.50167435 -0.50677365 1.1509001 -0.6344159
000110 01 64 87 3f 38 ca 05 be 77 82 fc 3d e7 7d 3a bf
       1.0577394 -0.13065422 0.12329572 -0.7284836
000120 ee a4 a8 3f 63 1d 3c bf 44 63 43 3f 4a e6 02 c0
       1.3175333 -0.7348234 0.7632334 -2.0453057
000130 b9 3a 3f c0 6d bb f1 3f ac 4d 2f be 6d 95 83 be
       -2.9879591 1.8885323 -0.17119473 -0.2569994
000140 1a c3 9c 3d 84 d1 24 3d c2 b3 e9 bc 86 58 79 bf
       0.076544 0.040238872 -0.028528098 -0.974007
000150 7a b5 f3 3b c7 5c 72 bc 2b ac f5 be e5 ec 9b 3e
       0.007437405 -0.014792628 -0.47982916 0.30454174
000160 c1 5f 73 be 66 f0 3e bf a2 34 3b 3f 84 04 54 3f
       -0.23766996 -0.7458557 0.73127186 0.8281939
000170 59 23 56 3e 04 42 b1 3e 03 7b 87 3e 42 25 b9 3e
       0.20911922 0.34620678 0.26461038 0.36161238
000180 fc dc 14 3e f9 c6 9e 3e bf 9a 32 3f 57 40 46 bb
       0.14537424 0.3101118 0.69767374 -0.0030250752
000190 44 b2 72 bc 6d df b4 3e f5 53 a8 b8 9d 08 a0 3e
       -0.01481301 0.3532671 -8.0265025e-05 0.3125657
0001a0 50 f4 10 3f 36 db 50 3f 64 7d 45 40 5a e6 7a 3e
       0.5662279 0.8158449 3.0857782 0.24501935
0001b0 6c 8e 88 3e 09 ca 82 3e 78 4b 1c 3e 1c 41 22 be
       0.2667116 0.25544766 0.15263164 -0.1584515
0001c0 6a b7 0f be f0 4e fb be cb 1a ae 3a 66 25 e8 ba
       -0.1403481 -0.49083662 0.0013283131 -0.0017711341
0001d0 27 01 15 be e3 df aa bd d4 b7 85 bd 2b 2e f0 be
       -0.14551221 -0.08343484 -0.06529203 -0.46910223
0001e0 6a bf 8d 3f b0 1d 41 c0 94 46 99 be 7b 2b 84 3e
       1.107404 -3.017437 -0.2993666 0.25814423
0001f0 22 e8 15 bf 72 3a 26 bd d8 fe b5 3d 6e 9c 02 3d
       -0.5855733 -0.04058308 0.08886498 0.031887464
000200 d0 be 92 be 85 b6 50 3b 63 04 b4 39 24 40 17 be
       -0.28661203 0.0031847071 0.00034335544 -0.14770561
000210 fb d1 8c bc d0 27 44 3d 26 f4 07 be a6 66 9b be
       -0.01718997 0.04788953 -0.13276729 -0.30351752
000220 61 d6 56 be 7c 92 21 bf f3 e2 4a bf e4 1e cb 3e
       -0.20980217 -0.6311414 -0.7925255 0.39672005
000230 8c 9d 6a bf 7d 20 96 3e 85 e0 af bf 2d b4 9f 3f
       -0.9164665 0.29321662 -1.3740393 1.247686
000240 8b 04 8f 3e eb b7 af bd 4b 55 40 bf 3c b7 06 3f
       0.27933154 -0.085800014 -0.75130147 0.52623343
000250 fc 80 b1 bf df b6 c7 3f e1 aa b7 3f 21 8a b0 3e
       -1.3867488 1.5602683 1.4349023 0.34480384
000260 05 cd 17 3f ef e4 d6 bc a6 89 ac 3f 88 dc ed be
       0.5929721 -0.02623221 1.3479507 -0.46457314
000270 a0 b0 a9 bf eb 3f 51 3e 0c 15 04 3f 89 91 16 bc
       -1.3257027 0.20434539 0.51594615 -0.009189972
000280 30 4d 6f bd 6b 03 df be 64 65 b3 bf 86 3b 17 3f
       -0.05842322 -0.43557295 -1.4015317 0.590752
000290 d6 71 0a 3f 20 24 25 bf 22 39 97 bf 0d e1 74 bf
       0.5407995 -0.6450825 -1.181431 -0.956559
0002a0 b6 22 8d bf 25 9a 91 3e 4a d3 cf bf 1a 0b bc be
       -1.1026218 0.28437915 -1.6236355 -0.3672722
0002b0 68 31 c6 be 18 a6 bb bf f5 5c 5c bb c7 18 b4 bd
       -0.3870957 -1.4660063 -0.0033624743 -0.087937884
0002c0 d8 2b 89 bf bd b6 16 bf 85 7b e8 be b1 53 ae bf
       -1.0716505 -0.58872586 -0.45406738 -1.361929
0002d0 08 8e 7c 3f a0 ec 84 40 b8 09 07 3f 78 fc 2f 3e
       0.9865422 4.153885 0.52749205 0.17186153
0002e0 f1 24 26 3f 83 16 43 be 1b 83 44 be 82 b6 50 3e
       0.6490012 -0.19051556 -0.19190638 0.20382121
0002f0 b6 80 70 3e 3b 13 52 bb 20 1b 13 bc 70 a4 11 bc
       0.234866 -0.003205492 -0.008978635 -0.008889303
000300 fb 98 ea bd fb 5d 30 3e 4b db f4 3d 02 54 5b c0
       -0.1145496 0.1722335 0.11955889 -3.4270024
000310 ed 3b 83 be 43 d1 2f 3d 32 77 a7 be 5f 7e 83 be
       -0.25631657 0.042924177 -0.32708126 -0.2568235
000320 d7 99 20 3e b1 af 45 be 9c 92 94 3e 37 d4 30 3e
       0.15683685 -0.19305302 0.29018104 0.17268454
000330 8a 31 ea bb 05 e1 16 bc 76 15 57 3e 1b a6 6b bd
       -0.007147019 -0.009208922 0.2100428 -0.057531457
000340 96 d2 55 3e 52 f8 93 3e 50 fb 22 3f d7 32 39 3f
       0.20881113 0.2890039 0.6366472 0.723432
000350 95 c5 48 3f 58 3d 2e bf 3a b4 bc be 14 e2 05 bf
       0.78426486 -0.68062353 -0.36856252 -0.5229809
000360 d6 19 67 3e d2 f9 7a bf 7c 47 bc bd e5 a2 cd bd
       0.2256845 -0.98037446 -0.09193322 -0.10040835
000370 44 a5 13 3d 1b f2 ab 3e 37 ab ce 3e df c4 87 bf
       0.03604628 0.3358315 0.40365002 -1.0606955
000380 bb fa e2 be b8 09 a8 3f 41 05 76 bf 1e 32 14 c0
       -0.44331917 1.3127966 -0.96101767 -2.315559
000390 b0 de 05 3f f8 74 16 bf ba 14 a2 bd 6c 11 89 3e
       0.5229292 -0.5877223 -0.079141095 0.26771104
0003a0 3f 67 01 3f 59 ad ba 3e 3f ee c1 39 81 bd 3e bc
       0.50548166 0.3646038 0.00036989336 -0.011641861
0003b0 10 24 fb 3e 7a 62 49 3e c5 f8 cf 3e e2 7a f7 3e
       0.4905095 0.19666472 0.40619484 0.4833594
0003c0 ab 50 b4 bf 36 4e da 3e 54 e2 13 3f 3f 45 5d bf
       -1.4087118 0.42637795 0.57767224 -0.86433786
0003d0 19 0d 52 3e 01 9c 42 3f f4 17 1b be 9c a6 ad be
       0.20512809 0.76019293 -0.15145856 -0.33916175
0003e0 74 4f 7b bf 49 df 5b bd 61 65 85 3e 8c 6f 2e bf
       -0.9816811 -0.05367974 0.26053908 -0.6813896
0003f0 19 da ba bd 03 f4 09 be 48 8b 02 bf c7 cd 5e 3f
       -0.0912363 -0.1347199 -0.50993776 0.8703274

layers.0.bias f4 [256]
000000 5a 2c 87 3d cf 3c 5b bf f7 fd 53 bd 22 cf b1 bd
       0.06600256 -0.8563966 -0.05175587 -0.086820856
000010 d9 ac 9e bf fd fc 2d 3e ad 57 19 bd 54 db 18 3d
       -1.2396499 0.16991039 -0.03743713 0.037318543
000020 29 45 a3 3c d2 de 88 bf 24 ec 8d bf 40 21 07 bf
       0.01993044 -1.0692999 -1.1087689 -0.5278511
000030 5b 0b 0e bd 13 9e 12 3e a9 59 91 bf ab c3 3d be
       -0.0346788 0.14318113 -1.1355487 -0.18531673
000040 9a 16 cf bf 5c c9 b4 bf 26 1f 94 bf 26 81 fc bd
       -1.6178772 -1.412395 -1.1572006 -0.123293206
000050 54 45 a6 bf 4d 64 69 bc 31 c9 97 3d 67 fb 6e bf
       -1.2989907 -0.014245105 0.07411421 -0.9335236
000060 db 2a f0 bf b9 12 fa bd 06 b8 f0 bf 3e c6 34 bf
       -1.8763078 -0.12210602 -1.880616 -0.70614994
000070 ce a8 8e 3e 09 5e d0 bf 3d e9 b2 3c 09 99 ae 3d
       0.27863163 -1.6278697 0.021839732 0.08525283
000080 76 9b 76 3d 80 11 c4 bf 53 ca 40 3e b7 34 22 3e
       0.060206853 -1.531784 0.1882718 0.15840422
000090 ec e8 88 bf 2b 7c 9a 3d 33 2a 9f bf 8e d7 fe bd
       -1.0696082 0.075432144 -1.2434753 -0.124434575
0000a0 25 b7 a6 bd a8 d9 23 be a0 de a7 be e1 84 a6 be
       -0.08140401 -0.16000998 -0.32787037 -0.32523254
0000b0 71 ff 61 bc 35 b0 4c be 6d 62 c4 bf f6 99 ca 3e
       -0.013793812 -0.19989093 -1.5342537 0.39570588
0000c0 7e f3 f7 3c e2 3f b5 be c3 17 a3 bc e7 ca ff bc
       0.030267473 -0.354003 -0.019908791 -0.031224681
0000d0 6a d3 ff be 8a 8e 7e be b6 d1 0b bf c2 88 e2 be
       -0.49965984 -0.24859062 -0.5461687 -0.44244963
0000e0 4e 56 36 3d fa f4 8d 3d aa 82 3b 3d 0e 2c 81 be
       0.0445159 0.06931491 0.045778908 -0.25228924
0000f0 80 17 10 3e 70 12 8e be c0 67 bf bf eb 91 bf bd
       0.14071465 -0.27748442 -1.4953537 -0.093540035
000100 e8 4a a9 bc 93 66 2c 3e fc 9d bf bf c4 66 b4 bf
       -0.0206656 0.16836004 -1.4970088 -1.4093862
000110 e5 ee 02 3c 95 36 7b be b9 b3 f7 bf 4f f0 14 bf
       0.007991527 -0.2453254 -1.9351722 -0.5817918
000120 d5 e9 9c bf e0 2e 5f bd 3c 63 33 3e 72 e5 d2 bf
       -1.225886 -0.054488063 0.17518324 -1.6476271
000130 9a d5 b7 bd 16 24 cc 3c 07 d0 51 bd 07 0b ca 3c
       -0.08976288 0.02491955 -0.05122378 0.024663461
000140 a8 88 73 3c cf 2c e2 bd 68 e4 5b 3c f9 d6 50 bf
       0.014864124 -0.11043703 0.0134211555 -0.8157802
000150 1d 76 5f bd 54 c2 a2 bf 00 6f af bf 3a 22 bd bf
       -0.054556 -1.2715554 -1.370575 -1.477607
000160 81 68 60 bf 3c 17 8b bf 97 b7 fe bd c4 1b b2 bd
       -0.8765946 -1.0866466 -0.12437361 -0.08696702
000170 74 da 94 be cd f9 76 be 09 44 2a 3d 84 6a 6d be
       -0.29072917 -0.24118729 0.04156879 -0.23185164
000180 df 44 de be a6 65 01 3e 88 57 82 3e f1 e4 b7 bf
       -0.4341192 0.12636432 0.25457406 -1.4366742
000190 3a 62 83 be 4d c5 aa bf 35 60 91 3d 2a 1c aa bf
       -0.25660878 -1.3341461 0.07098428 -1.3289845
0001a0 e7 7e 4f bb 00 6c 47 bf d0 c8 28 be 31 af 56 3d
       -0.0031661333 -0.7789917 -0.16482854 0.05241317
0001b0 d2 4c 3e bf bb 1f 20 be 4b a4 8c bd fc f8 59 be
       -0.7433597 -0.15637104 -0.06867274 -0.21286386
0001c0 79 80 ac bf 12 eb a9 be f6 60 5b be 2b 33 04 bf
       -1.3476707 -0.33187157 -0.21423706 -0.51640576
0001d0 d1 5a b6 bf 32 a2 93 3d a2 65 88 bf c9 15 44 bf
       -1.4246465 0.07208671 -1.0656016 -0.7659574
0001e0 2b fc 88 bf ac 03 4f bf 83 7c 79 be 3f 86 c6 bf
       -1.0701956 -0.8086498 -0.24363904 -1.5509719
0001f0 b9 a2 8b be 4b fe 40 bf 5b 4e a5 be 3e 70 a1 bc
       -0.27272585 -0.7538802 -0.32286343 -0.019706842
000200 8f ed 6e bd fd 54 b0 be f3 e7 dd bf 00 c0 48 bf
       -0.058332022 -0.3443984 -1.733641 -0.7841797
000210 e5 af fe bf e8 6e 9b bd 29 16 ce bf ef 51 09 bd
       -1.9897429 -0.07589513 -1.6100513 -0.033525404
000220 ce 33 89 bf db 82 0c 3e 7f fb a2 bf 4a 23 23 be
       -1.0718935 0.13721792 -1.2733 -0.1593143
000230 f1 f3 8e 3d 77 1a e0 bd c9 30 2a 3a dd 9e 7e 3e
       0.06980122 -0.10942548 0.0006492255 0.24865289
000240 d2 00 22 bf 7c 04 1c 3d 29 d7 dd be 67 30 37 bd
       -0.632825 0.038090214 -0.43328217 -0.044723894
000250 e6 fb 0d 3e af 95 8c bf 2e b2 06 bd 39 87 98 bf
       0.13865623 -1.098318 -0.03288477 -1.1916267
000260 42 aa b2 bf 87 48 18 3e ed da da be 13 cb 58 bf
       -1.3958209 0.14871417 -0.42745152 -0.84684867
000270 fd bb 80 bf 4a 2c b4 bf 84 43 8d 3d 6b c0 8b bd
       -1.005737 -1.4076016 0.06897643 -0.0682381
000280 1c d2 a9 bf 61 07 80 bf 6a ef a6 bf e1 25 ea bf
       -1.3267245 -1.0002252 -1.3041813 -1.829281
000290 df ec ca 3e 4a d8 9b bf fc c9 d1 3e 91 1e 68 bf
       0.39633843 -1.2175381 0.40974414 -0.9067164
0002a0 2b 6f a0 bf 44 a0 02 c0 6e 68 3f be 1a 97 1c bf
       -1.2533926 -2.0410318 -0.1869218 -0.6116806
0002b0 43 ba 23 3d 8c 62 94 3d 22 59 c3 bf 3d 5f a9 be
       0.039972555 0.07245359 -1.5261576 -0.33080474
0002c0 d2 d9 d3 bf 1b 0c b4 bd f7 f1 fe bc 00 73 0c be
       -1.6550848 -0.087913714 -0.031121237 -0.13715744
0002d0 29 d2 87 bf 49 30 65 3e 0c 63 74 bf 87 ee 96 be
       -1.0611011 0.223817 -0.95463634 -0.29478857
0002e0 b2 1b 1e 3e 5f ab d8 be f2 a2 44 3e 6a 15 89 bd
       0.15440252 -0.42318246 0.19202784 -0.066935375
0002f0 38 89 3f 3d a2 b9 e7 bd d6 1f 47 3e 57 43 26 be
       0.04676172 -0.113147035 0.19445738 -0.16236626
000300 13 79 ba 3c d8 a4 66 3e 85 49 1b bf 3d b2 b3 bf
       0.02276281 0.2252382 -0.60659057 -1.4038769
000310 46 de c6 bf b0 a1 cc bc 8f 3f 7a bf ea 99 df be
       -1.5536582 -0.024979442 -0.9775323 -0.43672115
000320 d9 53 97 bf 08 99 b3 bf 66 41 74 bf 1f b5 10 c0
       -1.1822463 -1.4031076 -0.9541229 -2.2610548
000330 4a c4 6d 3e 38 9f 92 bf ea bf ba bf 8e 6f 8e bd
       0.2321941 -1.145484 -1.4589818 -0.06954871
000340 dc 44 cc 3d 28 0f 8d bf b8 a6 81 bf e1 bc 06 be
       0.099740714 -1.102025 -1.0129004 -0.13157989
000350 f4 1e d5 bf 31 67 ad 3d 16 75 41 3e 70 6e c6 bf
       -1.6650071 0.08466948 0.18892321 -1.5502453
000360 c3 a1 21 3e dc bb b2 bd 73 aa 89 3d 83 b9 86 bf
       0.15784363 -0.087272376 0.06721964 -1.0525364
000370 2b 44 88 be ac 70 b0 bf 94 78 c7 bf c5 81 bc 3c
       -0.26614508 -1.3784385 -1.5583673 0.023011098
000380 df ff 30 be 24 2d e5 bd 9a 66 22 bf b3 bb 43 bf
       -0.17285107 -0.111902505 -0.6343781 -0.7645828
000390 b6 17 55 3b bb 23 68 3d 6b 90 9d bf 18 19 87 be
       0.0032515354 0.0566747 -1.2309698 -0.26386333
0003a0 60 7f 7e 3e d5 56 32 3d 8b e7 a1 bf 5e 19 8f bd
       0.24853277 0.04353984 -1.2648786 -0.0698726
0003b0 0b 11 06 3e 1d d2 1a bd ce 91 74 be a4 06 4a be
       0.13092439 -0.037798036 -0.23883745 -0.19729096
0003c0 8c 31 41 bc e4 9c 19 3d 47 43 87 bf 01 04 15 be
       -0.011791598 0.03750314 -1.0567406 -0.14552309
0003d0 6b 3b 41 be 5d 53 e7 be 24 27 81 be 63 5a 19 be
       -0.18870322 -0.4518079 -0.25225174 -0.14975886
0003e0 a9 b3 7d bf 1a d0 15 3e 68 d5 d5 bf 45 16 b9 bf
       -0.99102265 0.14630166 -1.6705751 -1.4459921
0003f0 e9 0c 2e 3d bc 6a f9 bf a6 27 fc bd 29 f5 3a bf
       0.04249278 -1.9485698 -0.1231225 -0.73030335

layers.1.weight f4 [256, 256]
000000 d8 3b 6c bc d3 92 e4 3d 0f 5c 7f 3d fa 8f 94 3d
       -0.014418565 0.11160817 0.062343653 0.07254024
000010 6f 6a 0e bd 46 f5 91 bc 03 0c 57 bd 00 f6 ea be
       -0.03476947 -0.01781715 -0.05250169 -0.45890808
000020 6f 6e a4 3e 0f 59 28 bf e9 05 ba 3e 8c 2d 4e 3e
       0.32115504 -0.6576089 0.36332634 0.20134562
000030 30 eb 6f 3f 6f fa 3f be 29 38 bf 3e 8e 72 d5 bf
       0.9371824 -0.18747877 0.37347534 -1.6675584
000040 fb a6 f8 bc 09 80 09 3f af ed 8f be dc fc b0 bc
       -0.03035306 0.5371099 -0.28111026 -0.021604948
000050 c2 42 f7 be 0d f5 f1 3e dd 8a d7 be 27 d9 3b bf
       -0.4829312 0.4725727 -0.42098132 -0.73378223
000060 4b af fb be 95 a6 26 be 6e d3 24 bf 25 e9 9a 3e
       -0.49157175 -0.16274484 -0.64385116 0.30256
000070 f8 90 8e 3e ba 42 0e bd 08 89 b8 3d 57 83 c6 3e
       0.27844977 -0.034731604 0.09010512 0.3877208
000080 a8 64 31 3f 37 cf 43 be 35 a4 d0 be b5 8c 3b 3e
       0.69294214 -0.19122015 -0.4075028 0.18315394
000090 16 fc e3 be 6b d9 4b 3f 92 33 13 bf f2 03 5a be
       -0.44528264 0.7962863 -0.57500565 -0.21290568
0000a0 04 87 3d bd d7 6e 0d be 85 8f 0a 3e f9 4c 4b bd
       -0.04627134 -0.13811813 0.13531311 -0.049633954
0000b0 1c 4c fe 3e c9 2a 86 bd d2 b6 85 be 2d b8 65 3f
       0.49667442 -0.06551129 -0.26116043 0.89734155
0000c0 63 13 9a 3e db 0e a0 be 5a 0a 66 3e 5a bf 81 bd
       0.30092916 -0.31261334 0.22464886 -0.063353255
0000d0 e1 10 df bf 1c 6d 9f be c0 05 bb be 71 53 d8 be
       -1.7427026 -0.3113793 -0.36527824 -0.4225116
0000e0 e1 a4 ff bd e0 a1 db 3e 82 00 dc 3e 5c 18 85 be
       -0.1248262 0.42896938 0.42969137 -0.25995147
0000f0 c7 62 b8 bb d5 52 7a bf d3 34 41 bf 3a ad fd bb
       -0.0056270096 -0.9778264 -0.7547123 -0.0077415975
000100 c9 c4 6e 3e 0d 20 d2 3d 26 06 ba bd 4b dc a1 bf
       0.23317255 0.102600195 -0.09083204 -1.2645353
000110 ba c5 c8 3e 16 7d bd be 89 53 99 be 42 e6 33 3e
       0.39213353 -0.37009495 -0.29946545 0.17568305
000120 36 f8 83 bf 51 c6 34 be a6 6f 89 3f 28 7f dc 3e
       -1.0310123 -0.17653777 1.0737197 0.43065763
000130 7d 4b 94 3d 41 2c 74 bd 25 f4 66 be 38 a1 81 bd
       0.07240961 -0.059612516 -0.22554071 -0.06329578
000140 f8 e0 30 3e 74 fd 0f bf bf 12 0c be d0 90 99 3e
       0.17273319 -0.56246114 -0.13679026 0.29993296
000150 d6 7d 72 3e 87 ba c9 3e 79 f1 bc 3e 44 c3 90 bf
       0.23680815 0.39400122 0.3690298 -1.130959
000160 bd 63 1a c0 58 93 47 3f 22 c2 8a 3f a3 aa 06 bf
       -2.4123375 0.77959204 1.0840495 -0.5260412
000170 a0 df 10 be 1a 94 88 3f a8 3b 54 3e cc 62 79 bf
       -0.14147806 1.0670197 0.20725882 -0.9741638
000180 b2 05 99 3c 38 b0 3b 3e cb ad 91 3f c2 b1 3d bf
       0.018679474 0.18328941 1.1381162 -0.7409936
000190 ed fe fd bd 78 ff 16 bf b5 7f 94 3e 5f 19 94 be
       -0.12402139 -0.58983564 0.29003683 -0.28925607
0001a0 05 b5 f1 3e 20 cf 36 3f 12 32 43 3d 47 77 dd bd
       0.4720842 0.714098 0.047655173 -0.10813766
0001b0 4a 09 fe bc 9a bd 68 3d 5e 23 11 be 10 45 80 3f
       -0.031010289 0.056821443 -0.14173648 1.0021076
0001c0 33 cc a4 3e e4 b6 2e 3f cf 55 69 3e 15 73 b6 be
       0.32187042 0.6824782 0.2278664 -0.35634676
0001d0 2a 00 cc be d1 4f 6e 3e 68 38 39 3e 07 3d af 3e
       -0.39843875 0.23272635 0.18087924 0.34226248
0001e0 a8 71 14 c0 f2 6a dd bc 9d 37 13 bf 0d 11 f1 3e
       -2.319437 -0.027028535 -0.57506734 0.4708332
0001f0 27 21 dd bd fe a1 3c bf ad 05 8e bf 34 6f b4 39
       -0.10797339 -0.7368468 -1.1095482 0.00034415128
000200 87 aa 8d 3e cb 00 40 bf 74 74 33 bf 5b 1e d4 bf
       0.27669165 -0.7500121 -0.7009957 -1.6571764
000210 44 5b 3c bf c7 36 97 3e 2f 9d ec bd 87 7c e7 3e
       -0.7357676 0.2953398 -0.11553418 0.45212194
000220 68 1d 0d bd 48 f5 94 3d 68 a8 dd be 09 f6 0f bf
       -0.034451872 0.07273346 -0.43292546 -0.56234795
000230 a2 d8 9f 3f 83 7e 23 3e bc 12 07 3f 83 96 74 3d
       1.2487986 0.15966229 0.5276296 0.05971385
000240 fa 26 d2 be ff 49 05 3f 31 8b 9f bb 33 84 a4 be
       -0.41045362 0.52066034 -0.004868888 -0.3213211
000250 34 45 34 be 30 d4 33 bd f1 9d a2 3e 3e 98 3d bf
       -0.17604524 -0.04390353 0.31761125 -0.7406043
000260 20 18 ec 3d 75 81 1a be 66 da c2 3d 7a df bc bd
       0.11528039 -0.15088446 0.095143124 -0.09222312
000270 92 f0 84 3f 24 18 10 be 5c 22 97 3d 0b 44 01 3d
       1.0385916 -0.14071709 0.073796004 0.03155903
000280 6f d5 83 be f8 c2 2a bf 89 3e 90 3d 58 42 a6 3d
       -0.25748774 -0.6670375 0.07043178 0.08118123
000290 a3 a2 42 bf ea 55 c2 3e 02 4f 35 3f f5 e8 32 3e
       -0.76029414 0.37956172 0.7082368 0.17471679
0002a0 49 f6 09 3f 32 34 5f 3e 2c be 29 3e ab 3a 3b 3e
       0.53891426 0.21797255 0.16576451 0.18284099
0002b0 4d 24 17 3f 51 d6 55 3e 2f 95 df 3e 37 e7 41 3e
       0.59039766 0.20882536 0.43668506 0.18935858
0002c0 4a da 75 bf b2 c1 c5 3e 56 3e 20 3f 13 67 d4 3e
       -0.9603621 0.3862434 0.6259512 0.4148489
0002d0 b2 31 56 bf 75 98 e8 3e d0 ba 38 bf 16 0a b0 bf
       -0.8366958 0.45428815 -0.72160053 -1.3753078
0002e0 9b 8f c2 be 9a 3f 79 be dc a3 16 be cd 5a ab 3d
       -0.38000187 -0.24340668 -0.14710945 0.08366928
0002f0 e7 3c 82 bd 05 6e 29 bf 91 d7 2d 3e 39 d8 67 be
       -0.063592725 -0.661835 0.16976763 -0.22641076
000300 ce 9e 82 be ef 22 dd 3e ce 8e 02 bf 4e 41 3d bc
       -0.25511783 0.43190715 -0.5099915 -0.011551214
000310 24 9c 20 be 89 0a 11 be 6b bc 06 3f 04 85 bc bd
       -0.15684563 -0.14164175 0.52631253 -0.09205058
000320 44 77 3e bf 31 af 6d 3f 1e 78 b4 be fc a8 ab 3e
       -0.74400735 0.92845446 -0.35247892 0.33527362
000330 49 23 50 bf 3f 8f 8c 3e 33 5b b1 be 89 af 34 be
       -0.8130384 0.27453038 -0.34639892 -0.17645086
000340 82 ef 9a be 35 1c 28 3f 20 93 16 3d d2 11 bb 3f
       -0.30260855 0.6566804 0.036761403 1.4614813
000350 32 0b 93 3f 4b 43 0a 3e e9 6c 08 bf e1 c1 e3 3e
       1.1487792 0.13502233 -0.53291184 0.44483855
000360 66 7f 8b bd 7a 0f a8 be 41 b0 67 bd 7d b1 d1 be
       -0.06811409 -0.32824308 -0.056564573 -0.40955725
000370 11 72 c9 3e 19 63 cd be 2c c6 7b be fb 5c da 3e
       0.39344838 -0.40114668 -0.24587315 0.42649063
000380 5c d0 f0 bd 1c eb 8f 3e e4 8b a0 bd af bb 3f 3e
       -0.117584914 0.28109062 -0.07839182 0.1872394
000390 cd f3 67 3d ff b1 3f be d5 8e 41 be 78 ec b6 be
       0.05662899 -0.18720244 -0.18902142 -0.35727286
0003a0 2b ff 7b 3e 64 b4 c2 bd e9 88 4e bf 37 a0 45 bd
       0.24609058 -0.09507063 -0.8067766 -0.048248496
0003b0 ea ed ea 3e d1 10 3d 3d 8e 72 1e 3f 63 8d 52 be
       0.4588464 0.046158615 0.61893547 -0.20561747
0003c0 cc 75 1e 3f c3 5c 4b 3e b0 c3 11 3f 4d 48 e9 bf
       0.61898494 0.19859605 0.5693922 -1.822519
0003d0 cc ac 89 be ee 9c 77 be b9 f5 84 be 0d 46 58 3f
       -0.26889646 -0.24180958 -0.25968722 0.8448189
0003e0 e5 a3 4d be 16 d5 ef be c4 9e b0 3f 20 a3 08 be
       -0.20082052 -0.4684226 1.3798451 -0.13343477
0003f0 35 40 f5 be cc 02 13 bf e5 29 ae bd 8c 4d 7c be
       -0.4790055 -0.5742614 -0.085040845 -0.24638957

layers.1.bias f4 [256]
000000 45 63 44 be 50 3a 47 bf af 7b 14 3f 42 39 aa bc
       -0.19178493 -0.7782335 0.58001226 -0.020779256
000010 dc 84 e8 be 75 17 77 be 3c a5 9e bd 96 7a 48 bf
       -0.45413864 -0.24130042 -0.0774636 -0.7831205
000020 7f f8 b5 bf 58 2e cc bf f8 8f 9a bf 5b 1f 62 bd
       -1.421646 -1.5951643 -1.2075186 -0.055205684
000030 72 99 f4 bd 19 f4 84 bf d9 ed 29 bf 6e f2 5d bf
       -0.1194333 -1.0386993 -0.6637855 -0.86698043
000040 79 ed 54 3f 09 94 89 bf dc 7e 45 bf ac 33 9f bf
       0.83174855 -1.0748302 -0.771467 -1.2437644
000050 72 86 9f be 6e e6 83 3f c3 79 c5 3e 46 13 33 bf
       -0.3115726 1.0304697 0.3856946 -0.69951284
000060 3e 17 4e bf 69 85 a1 bf 93 28 ac bf 0f e2 bd be
       -0.80504215 -1.2618839 -1.3449882 -0.37086532
000070 06 5a 27 bf ff 10 0d c0 d1 27 20 3e d2 ef 1c 3f
       -0.6537174 -2.2041624 0.15640189 0.61303437
000080 2f f5 40 3f ef 52 1a be 18 85 1f bf ba 5d 1f bf
       0.7537412 -0.15070699 -0.6231246 -0.6225239
000090 26 2c 22 bf 15 4c 63 bd ee 0d d0 bf 60 e2 dc be
       -0.63348615 -0.05549248 -1.6254251 -0.4314146
0000a0 a6 cb f8 bb 83 0f 9c be 9a d1 f4 be 9c 64 8f bf
       -0.007592636 -0.30480585 -0.47816163 -1.1202579
0000b0 75 07 e0 be 60 f7 80 bf 5e e6 78 bf 57 34 a3 3f
       -0.4375569 -1.0075493 -0.9722651 1.2750348
0000c0 7c 74 5e bf f7 73 08 be 79 90 2e 3f ac db 6d bf
       -0.8689649 -0.13325487 0.681892 -0.9291332
0000d0 cb 4c 1c bd dd 52 ba bf 6f e8 de be a1 4b ea bd
       -0.038159173 -1.4556538 -0.43536708 -0.11440206
0000e0 73 b8 98 3e 78 e5 04 bf 5a a8 91 bf 24 48 c9 3f
       0.29828224 -0.5191264 -1.1379502 1.572514
0000f0 8a f3 8d be e4 76 9b 3e 39 0a 4b bf 1a f5 aa 3f
       -0.27724868 0.30364144 -0.79312474 1.3356049
000100 cd 82 55 bd d6 24 39 bf 46 3a 0e 3f 03 35 7f bd
       -0.052126694 -0.7232183 0.5555767 -0.062306415
000110 8c 9c fb be 6e f5 2b bf 70 f2 30 bf 89 89 05 bf
       -0.49142873 -0.6717137 -0.6911993 -0.52162987
000120 20 e9 53 bf ec 3b df bd 23 cb 6e bd 4a 78 81 be
       -0.82777596 -0.10900101 -0.058299195 -0.25287086
000130 67 c3 b0 bf f3 0a c1 bf 57 ff 38 3f 77 f2 8f bf
       -1.3809632 -1.5081466 0.7226462 -1.1245869
000140 3c 32 80 bd 47 b7 9b bf 98 3b 9a 3f 53 3b 3b 3f
       -0.062595814 -1.2165307 1.2049437 0.73137397
000150 65 43 c6 bd 06 73 6d bf f3 ab a2 3f 3a 89 08 3f
       -0.09680823 -0.92753637 1.2708725 0.5333439
000160 8b 8d 9d be 3b 58 cd be 9e ec 01 bf 8d a7 dd be
       -0.3077205 -0.40106377 -0.50751674 -0.43291894
000170 67 fe 42 bf 7a 01 de 3d fe 5e 3c 3d 5b 97 c1 be
       -0.7616944 0.108401254 0.04598903 -0.37810788
000180 63 50 4b 3c 26 2b a6 bf ac ea d4 be 4b 02 04 bd
       0.012409302 -1.2981918 -0.4158529 -0.03222875
000190 38 c6 cb bf 0e b8 40 bf 19 44 83 3f ac e0 8e be
       -1.5919867 -0.75280845 1.0255157 -0.27905786
0001a0 4f 7e 1a bf 6f c8 82 3e 21 70 d5 bf 4d bf 40 be
       -0.6034898 0.25543544 -1.6674844 -0.18822975
0001b0 d2 c4 13 bf 00 88 6e bf cb 25 80 bd ef 50 8a 3e
       -0.577222 -0.9317627 -0.062572084 0.27014872
0001c0 1a 84 78 bf b0 74 b5 bf df 32 bc bd 71 cc 28 3e
       -0.9707657 -1.4176235 -0.091893904 0.16484238
0001d0 42 c5 1d bf 3a 41 55 bf 25 e1 b3 bd 14 a2 76 3f
       -0.61629117 -0.8330265 -0.08783177 0.9634106
0001e0 2d 42 70 bf a2 e8 29 bf 32 a8 76 bf 91 d4 8a be
       -0.93850976 -0.66370595 -0.96350396 -0.271153
0001f0 5f 06 8b bf 4b 0a 48 bc c4 bc 33 3f 0f ac 06 c0
       -1.0861319 -0.012209485 0.7020991 -2.1042516
000200 3c f9 9b bc 84 70 02 3b bc df 9a be 0f f7 36 bc
       -0.019039743 0.001990349 -0.3024882 -0.011167302
000210 4e 2e 50 bf 17 49 19 bf d4 ef 03 bf 03 cd 3b bf
       -0.81320655 -0.5987715 -0.51537824 -0.733597
000220 67 4e 03 3c 16 9a a5 bd 6f ba 01 bf fa f2 53 bf
       0.008014298 -0.0808603 -0.506751 -0.8279263
000230 e5 e3 8e bf 36 f1 c6 3e f7 dc 19 bc 51 11 85 bf
       -1.1163298 0.38855904 -0.009391061 -1.039591
000240 a2 df 89 bc 22 b6 ff bd 0e cc 00 3f 02 82 33 bf
       -0.01683027 -0.12485911 0.5031136 -0.7012025
000250 89 82 12 3f b8 68 4a 3e 7b 62 e2 be 93 f0 e8 bf
       0.5723043 0.1976651 -0.4421576 -1.8198417
000260 5f 6c 9a bd e5 ef c3 3b f0 b8 a1 bf fa f6 25 bf
       -0.075402014 0.0059795254 -1.2634563 -0.6482998
000270 1d 1e 97 bf 87 94 e7 3e ae 56 61 bf 4c 71 d1 be
       -1.1806065 0.45230505 -0.8802289 -0.4090675
000280 e8 d2 2b bf 20 bd c9 be 5a c8 58 bf a2 59 dd be
       -0.6711869 -0.39402103 -0.8468071 -0.43232447
000290 99 d4 b6 bf 5c 98 59 bf 57 6c 09 bf 3a c0 6d bc
       -1.428363 -0.84998107 -0.5368094 -0.014511162
0002a0 75 e5 96 be 8d 2e 05 bd b8 32 8e be 0d e8 19 3e
       -0.29471937 -0.032515097 -0.2777307 0.15029927
0002b0 f3 73 7c bd 55 b5 43 3c b2 8a 87 3e 9b 04 0f bf
       -0.061634015 0.011945088 0.26473004 -0.558664
0002c0 b8 8b f3 bc f9 20 22 bf 9b dd a4 bc 5f 54 2b 3e
       -0.029729709 -0.6333156 -0.020125201 0.16731404
0002d0 a2 09 ac bf 12 e5 76 bf b9 e4 6f bf 0c 1d fc bd
       -1.344044 -0.96443284 -0.9370838 -0.12310228
0002e0 dd be 4d 3f b3 7e 36 bf 9e df 2c bf 8f d6 32 bf
       0.8036936 -0.7128708 -0.6752871 -0.6985864
0002f0 d0 fc b8 3f f9 a9 a8 bf ce 11 6b 3f 9b 51 1b bf
       1.4452152 -1.3176872 0.9182404 -0.60671395
000300 6c 33 8a bd d7 6f 06 3f 3e 2f bf bf ad cd e4 3d
       -0.06748089 0.52514404 -1.4936292 0.11172042
000310 0b 32 13 bf 4b 0d 4f be d0 2d 75 be 9b 54 ef bc
       -0.57498235 -0.20219915 -0.23943257 -0.029215148
000320 8d 53 56 3f a7 b6 bf bd 92 dd 1e 3f 7e a2 85 bb
       0.8372124 -0.0936101 0.6205684 -0.0040782085
000330 0a a3 03 3f 7d 39 1e bf e6 1d 99 bf 55 cb 00 3f
       0.5142065 -0.6180647 -1.1962249 0.5031026
000340 a4 97 b1 bc 26 7c 80 bf 30 f4 a9 bf fd eb 15 3f
       -0.021678753 -1.0037887 -1.3277645 0.58563215
000350 72 ab c3 bf 26 99 27 bf 8d c9 31 3e 98 5a 91 bc
       -1.5286696 -0.6546806 0.17362042 -0.017743394
000360 51 ce ba 3e 26 3c a5 bf a2 8b a9 3e ca 98 04 3d
       0.36485532 -1.2908981 0.33114344 0.032372274
000370 c7 1f a7 3d a1 e9 cc 3e ba c1 05 3f d6 42 37 bf
       0.08160358 0.40021995 0.5224873 -0.7158636
000380 44 12 63 3f 59 a9 a6 bf ec 0e ac bf 8a 9b 8a bd
       0.88699746 -1.3020431 -1.3442054 -0.06767948
000390 72 a2 92 be b6 c5 fe 3e 36 8a 0d bf db 20 77 3f
       -0.2863956 0.49760216 -0.5528902 0.9653451
0003a0 52 72 d6 bf 97 c8 b3 3e 5a 39 e1 3e 33 9b 1d bf
       -1.6753638 0.35113975 0.43989068 -0.6156494
0003b0 1f f1 b5 3c 39 bb 61 bf f3 73 a4 3d a0 aa 45 bc
       0.022209702 -0.88176304 0.08029928 -0.012064606
0003c0 6e f8 8b 3f 77 e7 51 bd d2 da 94 bc d2 6a a6 3f
       1.093519 -0.051246133 -0.018170748 1.3001349
0003d0 63 c2 8a bf 60 7a 6c bf 8b 45 17 3f c0 fa 16 bf
       -1.0840572 -0.9237423 0.5909049 -0.58976364
0003e0 c2 0e 47 3f 02 68 1e c0 fd 79 b0 bf 1a 92 ab 3f
       0.77756894 -2.4750981 -1.3787228 1.3403962
0003f0 c9 e1 56 bf 0e fa ba 3e 9a c7 b3 3e ed a1 9b bc
       -0.8393827 0.36518902 0.3511322 -0.01899811

layers.2.weight f4 [3, 256]
000000 96 ce 84 3d b3 05 31 3f ff dc af bd 59 4b 01 be
       0.06484716 0.6914932 -0.085870735 -0.12626399
000010 03 1f c0 3d ba 61 2e 3f e0 cc 08 3e ee 74 4b 3f
       0.09380915 0.6811787 0.13359404 0.79475296
000020 b7 d4 02 bf e6 dc ba bf c7 9a 1a 3f 8c 83 93 bc
       -0.5110583 -1.4598663 0.6039242 -0.018007062
000030 e9 bc 5d 3f 61 b2 0f 3f 86 7e 5a 3f ec 10 b7 be
       0.8661638 0.5613156 0.8534931 -0.35755098
000040 7f b7 f7 3d 25 aa 0c 3e cf 58 0c 3f 14 1c 72 be
       0.12095546 0.1373678 0.5482301 -0.23643523
000050 63 22 3f bd 3d 8e f3 3f cf dc e8 3d d3 de a7 3e
       -0.046663653 1.9027783 0.11370241 0.3278719
000060 e7 53 87 bf a2 1e e3 3d 89 af b9 3f 6f d1 84 bf
       -1.057248 0.11089827 1.4506694 -1.0376414
000070 20 52 9a bf f6 13 27 3f b9 fe 10 be 18 79 53 3a
       -1.2056313 0.6526483 -0.14159669 0.00080670556
000080 54 90 4a bd 00 ec 6c 3e 48 c5 a2 be af 72 99 3e
       -0.04945405 0.23136902 -0.3179114 0.2997031
000090 bd 0d 2e bf 66 46 24 bc be 4f 66 bf 14 df 15 bf
       -0.6798971 -0.01002655 -0.89965427 -0.58543515
0000a0 14 41 ae bc 9c b1 4d c0 ad b5 3a bf e4 af 39 c0
       -0.021271266 -3.2139654 -0.72933465 -2.9013605
0000b0 45 8b ca bf a3 8b 27 be 1c d3 81 be 6e 11 6b 3e
       -1.5823752 -0.16361861 -0.25356376 0.22955868
0000c0 a0 6d b2 3e 11 99 14 bf 67 94 65 3f 2a 8d 9b 3e
       0.34849262 -0.5804606 0.8967957 0.30381137
0000d0 1c 1e 7e 3d b7 36 c8 3e 3a ca 01 3f 73 13 90 3e
       0.062040433 0.39104244 0.506992 0.2813984
0000e0 53 fa 86 3e 77 d7 05 be 89 92 66 3f 45 0a 1e 3e
       0.26362857 -0.13070475 0.90067345 0.15433605
0000f0 ec 2e d0 bd 10 94 e8 bd 55 ff 72 40 41 d0 65 be
       -0.101652 -0.11356366 3.7968342 -0.22442724
000100 c9 0e 39 bc d4 b3 15 3f ef 00 3b 3c c5 2e c8 3c
       -0.011295029 0.5847752 0.011413797 0.024436364
000110 60 d5 5f be 44 a5 ec be 4d 7f 61 bf 98 5e a5 be
       -0.2185874 -0.46219838 -0.8808487 -0.32298732
000120 5b e1 e9 3e 08 7f 01 3f 0b 96 31 bb d3 a3 51 3f
       0.45679745 0.5058446 -0.002709749 0.818906
000130 58 f9 01 bf 3f fa df 3f 91 0a 5f bf e0 aa 69 bf
       -0.50771093 1.7498244 -0.871255 -0.9127636
000140 94 00 df 3c e1 24 ba be d3 6f 98 3d 8d 44 8f 3a
       0.027221955 -0.3635626 0.07443204 0.0010930464
000150 00 02 42 3c 90 b7 9a 3e 91 e6 28 3e 2b f8 3c 3e
       0.011841297 0.30218172 0.16494204 0.18454044
000160 99 0c 01 3e c1 03 da be 90 fe 31 bf 1d a5 09 c0
       0.12602462 -0.4258099 -0.69529057 -2.1507027
000170 2c 98 33 3f bc 64 3b be a2 30 07 bf 22 4b 81 bf
       0.7015407 -0.18300146 -0.5280858 -1.0101054
000180 21 57 f1 bc ce a3 33 3f 19 14 cc bd 0d 5b a0 3d
       -0.029460492 0.7017182 -0.09964771 0.078298666
000190 7b a1 18 3e 90 57 19 3f df 39 19 be ce f6 41 bf
       0.1490535 0.59899235 -0.14963482 -0.7576722
0001a0 43 2d bf be 60 c5 24 be c9 05 6a bf 55 00 d3 3d
       -0.3733922 -0.16090918 -0.9141508 0.10302798
0001b0 91 96 73 bf c6 84 21 3f 24 7c ff 3c e8 05 d2 bd
       -0.9515162 0.6309322 0.031187125 -0.10255033
0001c0 55 e1 e6 be 5b c5 0b be 82 dc 46 3c 27 71 4e be
       -0.4509379 -0.13649504 0.012137534 -0.20160352
0001d0 17 81 05 3f f0 b8 82 c0 cf 5f 06 3e cf 9f 4a 3e
       0.521501 -4.0850754 0.13122486 0.19787525
0001e0 35 2e c9 3f 33 05 00 3f 0b fd 8a be 24 74 76 bf
       1.5717226 0.50007933 -0.2714618 -0.96270967
0001f0 80 67 10 c0 b6 79 39 bd 61 76 0d 3e 6f 7d 6f bf
       -2.2563171 -0.04528209 0.13814689 -0.9355077
000200 d0 23 9d bd d7 8d 46 bd b8 5b ca be f4 ad 25 3e
       -0.07672846 -0.048475113 -0.395231 0.16179639
000210 e3 d1 77 3d 11 aa 16 bf 2b 84 29 bd e3 88 af 3d
       0.060502898 -0.5885325 -0.04138581 0.08571031
000220 b8 09 cd bc 9c 0d 84 bd ff 21 67 bd ca 46 0d 3f
       -0.025029048 -0.06447908 -0.056428906 0.5518614
000230 33 6a 13 bd b3 ff 6b be 9f d6 c9 bc ba f2 89 3f
       -0.03598995 -0.2304676 -0.024638472 1.0777199
000240 0d 6a 20 bd 69 a9 25 3e 65 b3 fb 3e f4 2d 64 be
       -0.039163638 0.16177906 0.49160305 -0.22283155
000250 45 fd 38 be bf 89 96 bc 27 cf 68 bf 41 6b 67 bf
       -0.18065365 -0.01837623 -0.9094109 -0.9039803
000260 34 b2 cb 3a 19 91 68 bd d3 7c ad 3e fb 6e 51 bf
       0.001554078 -0.056779 0.33884296 -0.8180997
000270 e7 20 72 be 46 98 e3 be 06 a6 8a be de c3 00 3d
       -0.23645364 -0.44452113 -0.2707979 0.031436794
000280 08 64 ca 3f 75 d7 89 bf 2b ee 01 3d da dd 91 3f
       1.5811777 -1.0768877 0.031721275 1.1395829
000290 47 51 38 3d d7 d7 f2 3e 56 f3 94 be 8f 13 ba 3b
       0.044999387 0.47430298 -0.290919 0.005678601
0002a0 ff d9 37 40 c6 ab 99 3e f5 02 be 3d b6 03 0d bf
       2.8726804 0.30013865 0.09277908 -0.5508379
0002b0 43 d9 97 3a 28 dc b6 bc f8 1c c3 bc bd ad e8 be
       0.0011585135 -0.022321776 -0.023817524 -0.45445052
0002c0 a3 30 95 3a 85 79 77 bf ce e9 0f bd 37 1e 01 3e
       0.0011382293 -0.966698 -0.035135083 0.12609182
0002d0 e6 00 08 be 50 43 99 be 5c c3 9a bf 28 bc 21 bf
       -0.13281593 -0.29934168 -1.2090869 -0.6317773
0002e0 02 e9 bf be f0 03 32 bf 81 4a e9 be 90 11 29 bf
       -0.37482458 -0.6953726 -0.45564654 -0.66042423
0002f0 44 4c 2c 3d a0 c0 85 3f fe 69 a1 3d e7 d9 bd bf
       0.04206492 1.044941 0.078815445 -1.4832124
000300 67 24 84 3d 09 95 bb 3e 71 d2 03 3e 42 ae 24 be
       0.06452256 0.36637142 0.12873246 -0.16082099
000310 ad dc e2 3d f4 38 e1 bd 42 92 0f be f4 92 7f 3c
       0.11077247 -0.10997191 -0.14020637 0.015599001
000320 61 cf 88 3e c7 15 2c 3f f9 ed 73 bc bd 0f c0 bc
       0.26720718 0.6722073 -0.01488828 -0.023445005
000330 d9 5c de bd 26 96 25 3e 9b 6d ac 3f 90 12 01 c0
       -0.10857553 0.16170558 1.3470949 -2.016758
000340 be c3 53 bd 16 c4 23 3f 95 91 01 3f 3c 70 8a 3d
       -0.051700346 0.6397108 0.50612766 0.06759688
000350 4f eb 34 3f a6 a7 4f 3e 4a 7f ba be 39 b5 0d 3d
       0.7067155 0.20278797 -0.3642524 0.034596656
000360 63 da 78 bf df 62 00 3f 4f 7d c6 bd 28 6a ef 3d
       -0.9720823 0.50150865 -0.096918695 0.116901696
000370 e6 30 d8 be 8b 4c fc bf 69 e9 22 bf 66 30 2c bd
       -0.42224807 -1.9710859 -0.63637406 -0.042038344
000380 b2 07 28 bd 86 a0 8e bd 62 e3 18 40 1e 3c 0b bd
       -0.041022964 -0.06964211 2.3888783 -0.03399288
000390 1c 12 65 3f e5 be 4f 3e 0e 33 2d 3f e9 36 11 bf
       0.8948076 0.20287664 0.6765603 -0.5672441
0003a0 cf c9 5d be 40 e4 9f be 8d 51 30 bc 2a 6c 3d 3e
       -0.21659015 -0.31228828 -0.010761631 0.18498293
0003b0 67 72 f6 3f d3 03 d4 bd b6 87 2c be 92 b4 db bc
       1.9253663 -0.10352292 -0.16848645 -0.026819501
0003c0 6d cf bf 3d 49 d7 bf 3a 9b 9e 23 3d 29 21 83 be
       0.09365735 0.0014636304 0.03994618 -0.25611237
0003d0 79 ae 96 bf 9f 88 e5 3f 81 df 5a bd 4d 53 28 3e
       -1.1771995 1.7932318 -0.053435806 0.16438027
0003e0 37 cf 7b 3c 15 5c 0c be 35 bc 3e bf f8 f7 db bf
       0.015369228 -0.13707002 -0.7450593 -1.7185049
0003f0 28 5c bf be 90 83 e1 bc c4 f8 64 3d 4c 99 05 3b
       -0.37374997 -0.027528554 0.055901304 0.0020385562

layers.2.bias f4 [3]
000000 8c 5f 81 be 34 3b d1 bd 1e aa 1c 3f
       -0.2526821 -0.1021637 0.6119708

layers.3.weight f4 [3, 256]
000000 22 73 65 be 00 a8 94 3f fe d4 59 3e 9e 6b b5 3d
       -0.22407201 1.161377 0.21272656 0.08858417
000010 66 89 68 3e df d3 41 be a6 14 bf be 1b 8e dc 3f
       0.22708663 -0.18928479 -0.3732044 1.7230867
000020 03 f6 85 3f 08 c3 18 40 99 66 9e 3f 53 06 52 3c
       1.0465702 2.3869038 1.237506 0.012818891
000030 f6 b2 01 40 21 90 bd 3f e1 3d db 3f 74 4d f4 3f
       2.026548 1.480961 1.7128259 1.9086137
000040 e5 4a 4d 3d 25 8e c5 3f 58 f0 ae 3f 83 f8 0a 40
       0.050120253 1.5434004 1.3667097 2.171418
000050 7c 19 9b 3d a4 8b b3 be cc 24 91 bd 3e 7e 35 3f
       0.0757322 -0.35067475 -0.070870966 0.70895755
000060 f0 d0 16 40 a6 ee 28 3f f8 84 70 40 29 07 41 3e
       2.3565025 0.6598915 3.7581158 0.18850388
000070 aa 17 60 3f 7d c9 77 3f 9b f8 57 3d 38 49 a7 bd
       0.8753611 0.9679182 0.052727323 -0.08168262
000080 c4 eb 03 be 00 23 65 3e c9 6f fd 3f f2 ba 04 40
       -0.12882906 0.22376633 1.9799739 2.0739102
000090 72 5b c3 3e b8 d4 c2 3d ba a7 9f 3f 7a fa 58 3f
       0.38155705 0.09513229 1.2473061 0.84757197
0000a0 b1 f4 9d bc ed d7 9e 3f 81 72 a2 3e bc 28 d7 3e
       -0.019281717 1.2409645 0.31727985 0.42023265
0000b0 28 3f a0 3f 3b cd a3 3f 18 17 a7 3f b6 c3 5a be
       1.2519274 1.2797006 1.3053923 -0.2136372
0000c0 12 36 a3 3f 70 dc 5c be 6b e2 69 bd 91 9a 9e 3f
       1.2750876 -0.21568465 -0.057100695 1.239092
0000d0 71 a5 a7 3d d2 91 d4 3f c4 09 dd 3f f7 af 60 40
       0.08185852 1.6607001 1.7268605 3.51074
0000e0 37 72 fa 3d e2 c1 87 3e af e6 9f 3f d6 d5 3a be
       0.12228816 0.26515108 1.2492274 -0.18245634
0000f0 54 c4 f0 3e fa a1 83 3f e1 7b b9 40 5d 62 d2 3e
       0.47024786 1.0283806 5.796372 0.4109067
000100 9e ed 80 3c bc 76 81 3f ca ec b8 3e 5d c8 2d 3d
       0.015738305 1.011436 0.36118156 0.04242741
000110 cd f6 c2 3f e8 b0 4a 3f ac 25 41 3f df 30 52 3e
       1.5231568 0.7917619 0.7544811 0.20526455
000120 b8 e8 45 3f 7b 38 ef 3e da 5a 0d 3d 18 74 9d 3f
       0.77308226 0.4672278 0.03451047 1.2301054
000130 7e c8 e4 3f c6 7c 02 40 b5 3a 49 3e 34 fb 9e 3f
       1.7873685 2.0388656 0.19651301 1.2420411
000140 f1 8c 2c bd d5 2d 00 40 05 58 69 bb 52 e6 c1 be
       -0.0421266 2.0027974 -0.0035605442 -0.37871033
000150 8d c3 e4 bb ef b1 c5 3f ba a0 fe 3e b2 54 f6 3d
       -0.0069813193 1.5444926 0.49732 0.12027873
000160 87 1b d8 bc 7c fa 82 3f 1f 8a 19 3f bc fb af 3f
       -0.026380314 1.0232692 0.5997638 1.3748698
000170 2b b9 5c 3f 75 af 21 3d aa 92 3e 3f b0 4c 44 3f
       0.86220044 0.03947397 0.7444254 0.76679516
000180 5b dc 5a bb 96 b7 26 40 33 12 4c 3f 6f 4d b4 3d
       -0.0033395502 2.6049552 0.7971527 0.08803832
000190 e0 93 f6 3f d0 52 9a 3f f2 fd ba be c4 ba 89 3f
       1.9263878 1.2056522 -0.3652187 1.0760121
0001a0 5e b7 5f 3f 6e c6 93 3e 03 c8 30 40 f5 6e 82 3d
       0.8738917 0.28862327 2.7622077 0.063688196
0001b0 db d8 0c 3f 44 21 66 40 9f d0 72 3d 50 6d 5a 3d
       0.55018395 3.5957804 0.059280988 0.053326905
0001c0 6a cc bd 3f 83 83 14 40 1d e7 93 bd 6c 0e 96 3e
       1.4828007 2.3205268 -0.07221816 0.29307878
0001d0 af fc 8e 3e 6f e3 ba 40 8d 59 14 be 67 30 85 3e
       0.27927157 5.840263 -0.14487286 0.2601349
0001e0 62 d6 ba 3f 2c 10 a1 3f 41 11 91 3f 26 ce de 3e
       1.4596674 1.258306 1.133339 0.43516654
0001f0 18 db c6 3f d3 78 f0 3a a7 7a a0 3f be 94 99 3f
       1.5535612 0.0018346555 1.253743 1.1998518
000200 dd f7 15 bd 8f fc 00 bd e5 d6 24 3f 44 8d 3b 3d
       -0.036613334 -0.03149086 0.64390403 0.04578902
000210 84 ee 56 3f f8 91 4e 3f a6 70 52 3d 10 be 3f 3f
       0.83957696 0.8069148 0.05137696 0.7489939
000220 d1 6e 42 3c 8e ca 8c 3c 53 77 57 be 2d e2 42 3f
       0.011867241 0.01718643 -0.21041612 0.76126367
000230 18 53 a1 3f 88 e4 29 3d 82 d5 9d 3d f1 81 cf 3f
       1.2603483 0.04147771 0.07706739 1.621153
000240 e6 89 b9 bb 9c ee 51 3e c0 95 82 3e cd 6e 95 3f
       -0.0056621907 0.20501179 0.25504875 1.1674439
000250 6c 84 5d 3e c9 6b e4 3c 97 88 2e 3f 0e 6f db 3e
       0.21632546 0.027883427 0.6817717 0.42858166
000260 ec 14 44 3d 96 63 0b 3d eb 4d ef 3f c1 f2 09 40
       0.047871515 0.03403052 1.8695654 2.1554415
000270 04 82 89 3f 64 2d b3 bf 13 b7 da 3f 40 b9 c2 3f
       1.0742803 -1.3998227 1.708712 1.5212784
000280 c0 6d 32 40 17 3c ed 3e 82 3d 89 3e d8 7e 8e 3f
       2.7879486 0.46334907 0.2680474 1.113246
000290 6d 18 c4 3f 83 5f 89 3e f9 b4 25 3e 5e ee d3 3c
       1.5319954 0.26830682 0.16182317 0.025870498
0002a0 69 1c 67 3f fc 3f 28 3e bd 18 ff 3d 9c 1d 83 bf
       0.90277725 0.16430658 0.1245589 -1.0243411
0002b0 1d 27 8a 3d 6d 56 e7 bc 4a 72 0d bc 5c ee a9 3e
       0.067457415 -0.028239453 -0.008633206 0.33189666
0002c0 9f f1 20 3d d3 a8 09 3f 37 23 8d bc b6 dd c1 3b
       0.039292928 0.5377323 -0.017228706 0.0059163226
0002d0 7b 3b cf 3f 64 57 a5 3f 3a 8a a6 3f ad fa 77 be
       1.6190027 1.2917295 1.3010933 -0.24216719
0002e0 f7 9c 83 3f 9b 8a 90 3f ae 7f aa 3f a8 92 9e 3f
       1.0282277 1.1292299 1.3320215 1.2388506
0002f0 06 5e 2c 3e 9f 26 b7 3f fc f9 db 3d e0 e1 2a 3f
       0.16832742 1.4308661 0.1074104 0.6675091
000300 dd 58 dd 3b fa 20 1d 3e 0d 4f 91 be ef 57 48 3e
       0.006754978 0.15344611 -0.28380623 0.19564794
000310 2f f5 85 3e dd ee 6b 3e 45 03 98 3d 8b 4a c8 3b
       0.26163623 0.23040338 0.074224986 0.006112402
000320 86 2e 94 3e 0a cd 87 40 15 68 a0 bd 0a 2f e6 3d
       0.28941745 4.243779 -0.07832352 0.11239441
000330 18 aa 9f 3d a3 6f 17 3f 25 c3 b2 3f 85 84 56 3f
       0.07796115 0.5915472 1.3965803 0.8379596
000340 e1 33 3a bd 66 8a c2 3f 03 d0 88 3e 32 01 e9 3d
       -0.04545963 1.5198486 0.267212 0.11377181
000350 9b fa db 3f ca 69 eb 3f 87 5b 4d 3e d1 fa 6d 3d
       1.7185854 1.8391659 0.20054446 0.058100525
000360 2b 57 d0 3f a5 51 c2 3e 36 07 6c bd c2 80 af be
       1.6276602 0.37952915 -0.057624064 -0.34277922
000370 96 f8 07 3f bd f5 bf 3e 9c 78 25 3f bd b1 4e 3f
       0.5311369 0.3749217 0.6463716 0.8073996
000380 dc 88 92 3e 31 d0 87 3f e1 3e 04 40 79 c8 72 3d
       0.2862004 1.061041 2.0663378 0.059273217
000390 5b 0c 7b 3f 6c 48 98 3e 82 e0 35 3f e4 64 4a bc
       0.9806573 0.29742754 0.71045697 -0.012353156
0003a0 ee 1e c6 3e 78 63 8b 3e 85 f7 99 3e b1 29 8f 3f
       0.38695472 0.27224326 0.30071655 1.1184598
0003b0 92 37 5d 40 61 27 50 3e ac f2 9e 3a b7 ad f1 3d
       3.4565167 0.20327522 0.0012126765 0.118007116
0003c0 09 84 07 be 89 4e 41 3c da 3e 38 3d fb 97 ac be
       -0.13233961 0.011798509 0.044981815 -0.33709702
0003d0 80 98 c6 3f d9 ef cb 3f d4 e6 d1 bd 8e 1c a4 3f
       1.5515289 1.5932571 -0.10249105 1.2821214
0003e0 4e d4 06 bf bc c0 a7 3f bd eb ee 3f a7 28 22 3e
       -0.526677 1.3105693 1.8665692 0.1583582
0003f0 99 13 5c 3f 03 81 3b 3b 84 b6 f3 3d 91 e1 8d 3d
       0.85967404 0.0028610833 0.119000465 0.06927789

layers.3.bias f4 [3]
000000 be 01 06 c0 88 5f ab bf 75 09 f3 bf
       -2.0938563 -1.3388529 -1.8987261
