policy/pi.pth (torch, 285444 bytes, 8 tensors)

layers.0.weight f4 [256, 12]
000000 0d 4d e1 bf 3d 9f 88 bf 2b b2 96 be b0 4f 85 3e
       -1.7601639 -1.0673596 -0.29432806 0.2603736
000010 56 83 69 3e 29 89 4b bd f7 94 e8 be 0d 62 1c 3f
       0.22804007 -0.049691353 -0.4542615 0.61087114
000020 11 b6 05 3e 7b c4 8d 3b 67 db 39 3d 0d 54 25 ba
       0.13057734 0.004326401 0.045375254 -0.0006306775
000030 58 f6 04 3d 85 2f e0 bd 5d 50 07 3e d3 d8 a2 3e
       0.032461494 -0.10946564 0.1321425 0.3180605
000040 ea 63 8e be 12 5d 0a bf 24 29 a1 be 4c 9c 22 3e
       -0.27810603 -0.54048264 -0.314767 0.15879935
000050 d2 48 da 3e 6e 37 c1 3d 42 20 ba bc ed 61 c6 3d
       0.42633682 0.094344005 -0.02272046 0.096866466
000060 c2 eb 92 3f 34 d4 19 40 c7 54 2f 3f e3 86 32 3f
       1.1478198 2.4035769 0.68488735 0.6973707
000070 bc b7 94 3f 8a cd bb 3e 65 03 f7 be b3 43 29 3f
       1.1618571 0.3668025 -0.48244777 0.66118926
000080 d6 0b 82 3f 0f 00 3f 3c e8 e0 93 3c 08 c3 93 3e
       1.0159862 0.011657729 0.01805158 0.28859735
000090 06 b8 27 bf 95 b5 5e 3e bf 47 0a bf 94 c1 22 be
       -0.6551517 0.21748956 -0.54015726 -0.15894157
0000a0 0c d9 64 bd d0 f0 15 bf df 85 a9 3f 10 62 cc bf
       -0.055871055 -0.58570576 1.3243979 -1.5967426
0000b0 6d 21 aa 3f c1 9b 84 bd 9e ca 73 b9 5b c0 0c bf
       1.3291451 -0.0647502 -0.00023249767 -0.5498101
0000c0 be 67 7b bf f5 a8 94 3f 52 aa 9f 3e 92 a3 30 bf
       -0.98205173 1.1614062 0.31184632 -0.6899959
0000d0 f5 25 d9 3f 37 c7 0c bf 3d e4 02 bf a2 71 d2 3e
       1.6964709 -0.5499148 -0.51129514 0.4110232
0000e0 3f 9d 58 3e 5f fe 12 bd 61 99 b9 bb 9a 2b d4 3d
       0.21153735 -0.03588712 -0.005664036 0.10359879
0000f0 06 a4 1d bf 9e 02 f0 3f 73 26 10 c0 73 45 27 be
       -0.61578405 1.8750799 -2.2523468 -0.16335087
000100 e8 06 65 3f 26 a0 96 bf e0 a1 84 bf e1 b8 c6 be
       0.89463663 -1.1767623 -1.03619 -0.38812926
000110 98 cd 8f 3e bb 71 09 3d 24 3d 24 3d bf 8a 77 be
       0.28086543 0.033555727 0.04009737 -0.24174021
000120 10 cb 22 3e e5 50 ff bd a6 c4 8f be 26 a9 e4 bd
       0.15897775 -0.12466601 -0.28079718 -0.11165075
000130 26 e0 88 3e 34 64 dd bd b8 52 f9 3d 3c 10 b9 3e
       0.26733512 -0.10810128 0.121739805 0.36145198
000140 fe 79 05 3f 0f 09 9a 3c b3 63 d2 3c 75 45 14 bc
       0.5213927 0.018803148 0.025682306 -0.009049763
000150 87 76 14 be 77 1f c5 3d 2b c2 09 be 3c d7 ee 3e
       -0.1449834 0.09625142 -0.13452975 0.46648586
000160 5b 7c 0d bf 34 16 27 bf 82 c5 85 3f 0a 1d 0e bf
       -0.55267876 -0.65268254 1.04509 -0.5551306
000170 4d cd 33 bf fa 58 04 bd 7a 07 27 bd 95 a4 84 3f
       -0.7023514 -0.032311417 -0.040778615 1.0362726
000180 56 52 f7 be e5 52 a8 bf 08 5e db bf e4 2d ec 3e
       -0.48305005 -1.3150297 -1.7138071 0.46128762
000190 d2 14 0f be 69 fa 38 bf bf b8 7d 3e 59 3b d7 3e
       -0.13972786 -0.72257096 0.24777506 0.42037466
0001a0 89 b1 2d be 6a 45 21 bb 8c 6d 04 3d 3f 02 7b bc
       -0.16962256 -0.0024608024 0.032331035 -0.01532036
0001b0 6d ad 9d 3e f3 f4 ab be 5b 4e f3 bb 6c c2 7b bf
       0.30796376 -0.3358532 -0.007425112 -0.9834354
0001c0 81 fe 6a be 39 91 06 3e b1 c3 46 be 95 81 87 bf
       -0.22948648 0.13141336 -0.19410588 -1.058642
0001d0 da bf b5 bb 1e 27 c0 3c b4 e3 9f 3c 48 11 09 bf
       -0.005546552 0.023456153 0.019517757 -0.53541994
0001e0 50 03 e0 bf f4 ec fa be 5f c7 2e bf 74 ad 7a be
       -1.7501011 -0.49008906 -0.68272966 -0.2448023
0001f0 f2 5f 71 be 96 98 9f 3e ba 85 99 3e 61 fa ce 3a
       -0.23571756 0.311711 0.29984838 0.0015791171
000200 20 6e 00 3d 6e 33 cc bb b2 fb 17 3b d0 44 7a bc
       0.031355023 -0.006231717 0.0023190794 -0.015275195
000210 74 87 98 3e 0c b8 bb bd ed e3 16 bf cd dd 1d bf
       0.29790843 -0.091659635 -0.5894154 -0.61666566
000220 63 02 81 bf ca c3 8f bd 9e 8f f1 3f 61 d8 f1 be
       -1.0078853 -0.07019766 1.8871953 -0.47235397
000230 55 17 11 bf 01 0d 5e bc f3 37 85 bd 0e ad 28 3f
       -0.56676227 -0.013552905 -0.06504812 0.6588906
000240 65 db 1b 3f 73 92 a0 40 88 a1 0c bf 05 a1 88 3e
       0.60881644 5.017877 -0.5493398 0.26685348
000250 2a 3a 59 3f 31 6e 87 bd 3d b5 04 bf 8b 59 83 3d
       0.84854376 -0.06612814 -0.5183905 0.06413563
000260 9c 41 87 3e dd 45 2e bc 6f 40 b0 3b 70 66 0e 3e
       0.26417243 -0.010636774 0.005378775 0.13906264
000270 df ce f1 be 4c 47 3a bf 74 99 be be 1a 76 34 bf
       -0.47228143 -0.7276504 -0.3722645 -0.7049271
000280 79 74 46 3e 29 ce 5e be 43 a9 66 bc 63 15 66 bf
       0.19380368 -0.21758331 -0.014078441 -0.89876384
000290 c1 76 66 3e cb 94 2b bc 1a d6 04 bd 9a 63 57 3d
       0.22506239 -0.010472487 -0.032430746 0.05258522
0002a0 78 62 fd 3f 68 56 f3 c0 2e 17 1c be e2 07 a8 3e
       1.9795675 -7.6042976 -0.15243217 0.32818514
0002b0 46 3f ce bf 07 ce 8a bd 3a 84 63 3f 6d fa 96 3e
       -1.611306 -0.06777578 0.88873637 0.29487935
0002c0 96 b7 bc 3d 12 14 b5 3c cc d0 ae 3b 0f f7 f6 bd
       0.09214704 0.022104297 0.005334949 -0.120588414
0002d0 50 f3 41 3f 86 14 08 3f e3 9a 8b bf 5f 31 9b 3f
       0.7576189 0.53156316 -1.0906643 1.2124442
0002e0 b0 9a 18 3f 44 81 ff bd 4b f2 00 bf 6b 9e 89 3f
       0.59611034 -0.12475827 -0.5036971 1.075147
0002f0 fc 1e d7 3c d0 48 8a 3b 26 8c 80 bb 03 8d 96 3e
       0.026259892 0.0042201057 -0.003922957 0.29404458
000300 44 87 21 c0 98 11 6c 3f fd 9f f3 bf d8 53 52 bf
       -2.523881 0.92214346 -1.90332 -0.82159185
000310 4e 6d 83 3e a1 86 fd be 21 93 f7 bd 87 71 3b bf
       0.2566933 -0.49516776 -0.120886095 -0.73220104
000320 1a 83 94 bf ae a1 31 ba 77 a2 98 bd f6 6f 2a 3d
       -1.1602509 -0.00067761063 -0.07452863 0.04161068
000330 e7 03 b0 40 a4 a0 0a bf 66 7e 0c 40 13 4b 90 3f
       5.5004764 -0.5415137 2.1952147 1.1272911
000340 89 73 a5 be 95 ff dd 3e dc 79 84 3e 6b 18 5b 3f
       -0.3231471 0.43359056 0.2587422 0.85584134
000350 2d 0e 05 bd be ca f6 ba f5 18 57 3c 89 c3 8f 3d
       -0.032484222 -0.0018828732 0.013128509 0.07019717
000360 29 64 8f be 3f 0e eb 3c 28 dc bf bf db 2d d9 bd
       -0.28006104 0.028693317 -1.4989061 -0.10604449
000370 21 e7 1d 3f d6 3a 7f be 86 4b b1 bf 60 59 4e 3f
       0.616808 -0.24924788 -1.3851173 0.80605125
000380 25 dd e5 be 46 b3 0b bd 9a 4c b6 3c ea 90 84 3f
       -0.44895282 -0.034106515 0.022253323 1.0356724
000390 c2 cc 1a 40 92 67 35 3b 38 1e e8 3f a7 75 e8 3e
       2.4187474 0.002768014 1.8134222 0.45402262
0003a0 ca 03 3c bf e2 10 af be a3 cf 64 be 28 ad 52 3f
       -0.7344328 -0.34192568 -0.22344832 0.82295465
0003b0 08 67 45 bf 6e 6c 05 3d 2c 70 6b 3d df 37 bd 3e
       -0.7711034 0.03257411 0.057480022 0.3695669
0003c0 1c f4 16 40 4f 51 43 bf 6d fb 9b bd 73 31 e4 3e
       2.3586493 -0.7629594 -0.07616315 0.44568977
0003d0 42 75 48 3f 11 b5 ba be c2 40 cb bf c6 1f 0e 3f
       0.7830392 -0.36466268 -1.5879138 0.5551723
0003e0 77 96 37 3e 04 94 5e bb b1 27 d9 3b 66 0c 9e bd
       0.17928492 -0.0033962736 0.006627046 -0.077172086
0003f0 49 53 65 3f 87 23 85 3f ed 74 fe bd 54 a1 81 3d
       0.8958021 1.0401467 -0.124246456 0.06329599

layers.0.bias f4 [256]
000000 93 ee f5 bd 9b c1 7d bf 88 43 32 be 30 7e a9 bf
       -0.12008395 -0.99123544 -0.17408574 -1.3241634
000010 98 e0 8f 3b f7 48 4a be 37 2e f6 be cc 64 fb be
       0.0043907873 -0.19754396 -0.48082134 -0.4910034
000020 74 d4 8d bd af d7 8d bf 96 be 85 bd a1 c1 53 bf
       -0.06925288 -1.1081446 -0.06530492 -0.8271733
000030 af 7d cc 3b 3c 2c 13 3c 05 34 bd bd eb 17 0b be
       0.0062405686 0.008982714 -0.092384376 -0.13583343
000040 d2 8b bc be b3 92 70 3d 13 fa 3f bf 7c bb 0b be
       -0.36825424 0.058733653 -0.7499096 -0.13645738
000050 8e aa fa bc c9 e1 5b bf a2 96 14 be 5b 2f 1f 3c
       -0.030598905 -0.85891396 -0.14510587 0.00971588
000060 8c e8 0b be 3b f5 4b bf 65 b8 8b bf b6 28 47 bd
       -0.13662928 -0.79671067 -1.0915648 -0.04862281
000070 b7 b2 74 bf 47 20 30 bf 52 b1 1b 3b 33 3c c6 bd
       -0.955852 -0.6879925 0.0023756814 -0.09679451
000080 90 3d 55 bf c8 e7 25 be 04 8e 9a 3c 31 ff 59 bf
       -0.8329706 -0.16201699 0.018866546 -0.85155016
000090 9d 47 b7 3c 66 dc 77 bd 74 24 06 3d 9c b7 9f bf
       0.022373015 -0.060512923 0.03274961 -1.2477908
0000a0 f7 4b b9 bd 91 7b 08 bf 7f 2b 93 bb b1 a8 a0 3d
       -0.09047692 -0.5331355 -0.004491269 0.07844675
0000b0 98 39 18 be f2 ef 09 ba 88 6e 4f bd 3e 76 9d bf
       -0.1486572 -0.000526189 -0.05064252 -1.230171
0000c0 49 4b 60 3d 2c 32 41 bf 1a 05 1d bd 78 44 12 be
       0.054759298 -0.7546718 -0.038334943 -0.14283931
0000d0 ff 09 3e bd 42 3d a2 be b4 49 e1 bd 2a d1 3b 3a
       -0.04639625 -0.3168736 -0.11000386 0.0007164652
0000e0 9f 0d 61 bc e5 89 03 be 7d 3b 96 bd 96 aa 96 3d
       -0.013736158 -0.12845571 -0.07335565 0.073567554
0000f0 76 c3 c4 bf 3f 2e d2 3c e4 16 b1 be 2e 78 6e be
       -1.537215 0.025656817 -0.34587777 -0.23288032
000100 59 18 2c 3b 33 f0 eb bd 16 9c 23 be 82 80 ad bd
       0.002625963 -0.11520424 -0.15977511 -0.084717765
000110 60 8d c7 bb 06 0b 47 be ea 4e 95 bd ea 1a 27 bf
       -0.0060898513 -0.19437799 -0.07290442 -0.6527544
000120 4e 81 8a bb 19 b2 b3 bf 06 95 e6 3c 2d 0f b0 be
       -0.00422684 -1.4038726 0.028147232 -0.34386578
000130 c6 a3 66 bc da f3 7b bf 48 c2 27 3c 19 b6 a6 3c
       -0.014077133 -0.9841896 0.010239191 0.020350503
000140 9d b0 89 bf 83 2c c8 3a 3b d9 14 be 4c f7 87 3d
       -1.0757023 0.0015272055 -0.14535992 0.06638965
000150 f6 fa 9d bf ea f1 08 bf 9b 40 04 3e 86 0e 11 bf
       -1.2342212 -0.5349413 0.1291527 -0.56662786
000160 20 c3 cb 3c c2 4b 06 be 93 4a 40 3d 52 40 24 3d
       0.024873316 -0.13114837 0.04694612 0.040100403
000170 5a d0 15 bf 5b e0 81 bf 28 58 df 3b 85 9a 89 bd
       -0.58521044 -1.0146593 0.006815929 -0.067189254
000180 f0 0e 1b bf 18 64 d2 be 21 e8 12 bd cb ba bd bd
       -0.6056967 -0.4109199 -0.035865907 -0.092641436
000190 ac 04 1c bf 0a cc 88 bf a4 54 a9 be 5e 55 0b 3d
       -0.6094463 -1.0687268 -0.33072388 0.03401696
0001a0 3d 28 28 bf b5 01 3b 3c 95 cf de be 46 82 6e bd
       -0.656864 0.011413981 -0.43517748 -0.058229707
0001b0 7c a6 a6 bf cf ad 9c 3d 7b c3 d8 be da 9c 2a be
       -1.3019557 0.07650339 -0.4233664 -0.16661397
0001c0 3f 35 13 bf 60 6c 67 bf 46 85 45 bd 29 c6 85 bd
       -0.5750312 -0.9039974 -0.048222803 -0.06531937
0001d0 03 d1 c0 3a cd 2a b0 be 3f f9 32 3e de 40 cf bf
       0.0014710728 -0.34407654 0.17477892 -1.6191671
0001e0 b3 0f bf bd f4 83 29 be a3 6d e3 bb 4d c5 8f 3c
       -0.09329166 -0.16554242 -0.00694056 0.017550135
0001f0 69 6d e0 3d 17 a6 00 bf 3a 7d d4 be 6d 9d 71 bf
       0.10958368 -0.50253433 -0.4150179 -0.9438084
000200 e1 cb 43 be 8f 65 44 bf 7f 8b 85 bd 26 2e 7e be
       -0.19120742 -0.76717466 -0.065207474 -0.24822292
000210 05 1e 9f 3d b4 65 66 bf ac 5d 48 bf 65 c7 b2 bf
       0.07769398 -0.89998937 -0.7826793 -1.39671
000220 a8 a1 d6 be f0 59 8f bf 66 55 c4 be f2 3a 0e bf
       -0.4192021 -1.1199322 -0.38346404 -0.55558693
000230 a3 96 48 3d ec 54 00 3c 35 88 ad 3c c4 55 77 bf
       0.048971783 0.007832747 0.021183113 -0.9661524
000240 9c 6a cd be e3 51 e8 bc 68 81 27 bf bd 3c 2f bf
       -0.401204 -0.02835936 -0.65431833 -0.68452054
000250 31 2e be 3b fc a8 af be 76 86 43 bf 1a e9 75 bf
       0.0058038463 -0.34308612 -0.76377046 -0.9605881
000260 f8 3b a2 bf 73 6e 58 bc 5c 5f 2f bb f5 a4 e7 bd
       -1.2674551 -0.013209927 -0.002675972 -0.1131076
000270 14 d9 2b bf 34 db bd bf 22 f7 94 bf 4c 19 46 bb
       -0.6712811 -1.483252 -1.1637919 -0.003022748
000280 d4 2c 24 bd fb bb e7 be 5c 8c 25 bd f1 bb 11 bf
       -0.040081814 -0.45260605 -0.04041706 -0.569274
000290 56 12 eb be e4 83 89 bf 68 b3 bc be bb f7 2d bc
       -0.45912427 -1.0743375 -0.36855626 -0.010618146
0002a0 26 b6 98 3d ad 3b eb 3d 0c c6 7d bf 3f 2c 10 bf
       0.07456617 0.114859916 -0.9913032 -0.56317514
0002b0 93 66 c0 bd 69 82 a8 3b c5 31 0a be 8f c3 53 bc
       -0.093945645 0.005142499 -0.13495548 -0.012925043
0002c0 5c 05 38 bd 4d f1 ef bd ff fd 19 be cb cb 17 bf
       -0.044926986 -0.11715946 -0.15038298 -0.5929534
0002d0 15 fb cf 3c ff 1e c8 be 44 b7 0a be 9e 64 67 be
       0.02538828 -0.39086148 -0.13546473 -0.22596976
0002e0 f4 d4 a6 bf 23 89 e1 bb a3 75 6f be 8e 06 b8 bd
       -1.3033738 -0.006882803 -0.23384719 -0.08985625
0002f0 1a b2 e5 3c d1 07 37 bf 25 8b b4 be c8 91 cc be
       0.028039027 -0.714963 -0.3526241 -0.39954972
000300 f2 6a e7 be 0f 9b 91 bf a5 4a 31 3d ec df 87 bf
       -0.4519878 -1.1375445 0.043284077 -1.061521
000310 d2 f0 d1 be de a8 a2 bf cf 93 31 bf 12 b0 08 be
       -0.41004044 -1.2707784 -0.69366163 -0.13348415
000320 22 a3 89 3d f5 60 71 bc b4 aa 7c bf 64 ef 24 bf
       0.06720568 -0.014732589 -0.9869797 -0.6442778
000330 09 75 13 bf 15 2b 16 bf 59 ce ce bb ec b8 16 3a
       -0.57600456 -0.5865949 -0.0063112197 0.00057496014
000340 d8 b2 5c be f9 31 69 be 14 c5 dd be af 7b b1 bf
       -0.21552598 -0.2277297 -0.4331442 -1.386587
000350 13 00 ea bd 68 5b b2 3b dd 61 d3 bd be ea 97 b9
       -0.114257954 0.0054430254 -0.103214 -0.0002897586
000360 a1 e9 a0 bf cc 63 d2 ba ab 0a 98 bf 32 e9 5d be
       -1.2571298 -0.001605147 -1.1878256 -0.21670988
000370 7e 4f 18 bb 04 7c 4a bf 33 5e 76 bf e3 43 43 bf
       -0.002324074 -0.7909548 -0.96237487 -0.7627546
000380 06 9f d4 bf e4 1f 23 be c8 14 51 bf 26 25 5c 3b
       -1.661103 -0.15930134 -0.81672335 0.0033591478
000390 98 2c a1 bf c4 27 b1 bd a8 ff ce bd 7a 09 13 be
       -1.2591734 -0.08650163 -0.10107356 -0.14359084
0003a0 7d d4 32 bf 4e 15 28 3e 5a 30 29 bf 21 c7 c1 bf
       -0.6985548 0.16414377 -0.66089404 -1.5138894
0003b0 bb e7 98 be 49 f7 29 3e 8f 72 bf bf c5 ce 4a bf
       -0.29864296 0.16598238 -1.4956836 -0.79221755
0003c0 38 f4 c7 bc e1 d7 d5 be e4 fe f7 3d 65 b0 87 bc
       -0.024408445 -0.41766265 0.121091634 -0.016563604
0003d0 e8 c6 88 bd c9 21 0b be 01 7d 76 be 47 2b 0f bf
       -0.06678563 -0.13587107 -0.24071123 -0.5592541
0003e0 7f d4 9d bd cd 13 bd be 84 87 08 bf 28 5a 2e bc
       -0.07706546 -0.3692917 -0.5333178 -0.010641612
0003f0 fd c2 95 bf 13 38 ce bd 9d cf 8b bf 8b d2 10 3d
       -1.1700131 -0.10069289 -1.0922734 0.03535704

layers.1.weight f4 [256, 256]
000000 13 d3 21 bc b1 bd a6 bd d9 f1 99 bc 12 4b 76 bd
       -0.009876984 -0.081416495 -0.01879208 -0.060130186
000010 1f 71 c5 3c 53 7d aa 3c 7a 3a c6 3b 37 fb 8f 3c
       0.024101792 0.020811712 0.0060494514 0.017575843
000020 8c 61 92 bd b4 46 9f bb 97 e1 c2 3c a0 fd 2c bd
       -0.07147512 -0.0048607234 0.02378921 -0.042234063
000030 36 d7 d0 bb 71 b7 83 bd 5f 09 bc 3c 81 4d 06 bd
       -0.0063733114 -0.06431473 0.022953687 -0.032788757
000040 0d 05 a2 bc 4d f9 2f bd b6 3e 8a bc 60 84 93 bd
       -0.019777799 -0.04296236 -0.016875606 -0.07202983
000050 7e a1 c2 bc 07 7a 60 bd 4c 63 39 bd 97 7c 63 bd
       -0.023758646 -0.054803874 -0.045260713 -0.05553874
000060 2d cb c3 bd ca 72 90 bd 7c 57 84 3c a9 bd 92 bc
       -0.09560237 -0.07053144 0.016154997 -0.017912703
000070 a8 8a 9f bc 97 39 3d 3d a0 93 29 3c c8 5f a8 bb
       -0.019475296 0.0461975 0.010350138 -0.005138371
000080 61 9d ca 3b de f1 61 bd cb 27 1c bd ca ab d7 bc
       0.006183312 -0.055162303 -0.038123887 -0.026327033
000090 4b b1 1f bd 1f 9c 4f bd e1 d7 06 bd 40 68 47 bc
       -0.03898744 -0.050685998 -0.032920722 -0.012170851
0000a0 f0 66 9a bc 00 f5 81 3c df aa a4 bd 81 5f 58 bd
       -0.018847913 0.015863895 -0.080404036 -0.052825455
0000b0 0a 81 92 bd aa fd c1 bc e6 26 e3 3c 31 e2 7e bd
       -0.071535185 -0.023680527 0.02772851 -0.06222743
0000c0 bc ce 59 bd 26 3e eb bc 16 63 05 3d b0 57 8f bd
       -0.053175673 -0.028716158 0.0325652 -0.06999147
0000d0 46 35 5e 3c af 25 2d 3c f9 94 5a 3a 35 6b 81 3c
       0.013562506 0.0105680665 0.00083382387 0.01579819
0000e0 dd f9 27 3c c6 ff 42 bd 0e cf c6 3b 11 c5 84 bc
       0.010252443 -0.047607206 0.0060671633 -0.01620725
0000f0 31 83 93 3c 73 86 af bd fe eb 5a bd 40 82 d3 bb
       0.018006893 -0.08570566 -0.053447716 -0.006454736
000100 56 87 a3 bd 9d f9 29 3d c1 49 f7 3c f0 61 8f bd
       -0.07984798 0.041497815 0.030186536 -0.07001102
000110 27 d8 ae bd ee 47 1a bd db 13 a8 3c 1e 59 92 bc
       -0.085373215 -0.037666254 0.02051728 -0.01786476
000120 ed 8e f6 3c b7 84 0c 3c c9 8d 92 bd 58 7a 07 bd
       0.03009745 0.008576564 -0.071559496 -0.03307566
000130 b3 c1 d5 bb ca e7 91 bc 85 c5 84 bd d4 bc ac bd
       -0.006523335 -0.017810721 -0.06482986 -0.084344536
000140 b6 04 cd 3c 48 1f 21 3c 74 b6 6a bd c1 da 30 bd
       0.02502666 0.009834118 -0.057302907 -0.04317737
000150 b0 ea 86 bd bf 68 af bd 15 49 44 bd 19 cc 16 bd
       -0.06587732 -0.085649006 -0.04792126 -0.036815736
000160 eb d3 30 bd 57 0e 57 3d b4 24 2d bd 18 87 a8 bd
       -0.04317085 0.05250391 -0.04227133 -0.08228892
000170 29 6a 64 bd 77 d1 42 bd 54 d2 57 bd 22 6f 96 bc
       -0.055765305 -0.047563042 -0.05269082 -0.01836354
000180 b0 d9 96 bc 60 57 1c bc 49 4e ce bc 8d ea a6 bc
       -0.018414348 -0.009542316 -0.025183814 -0.020375514
000190 75 d9 27 3d 5e c5 b6 bb 2e e0 91 bd c3 5c bf bd
       0.040978868 -0.005577727 -0.07122837 -0.09343865
0001a0 31 80 36 3c f3 dd ca 3c 29 b4 7f bd 6e 4b 0d bd
       0.011138962 0.024764037 -0.062427673 -0.034495763
0001b0 c1 fe cd 3c 5b aa 9b bd 5d 95 22 3c 48 98 3e bd
       0.02514589 -0.07600852 0.009923306 -0.046531945
0001c0 6e dc 08 bd 1f 73 ff bc ff df 76 3d ba 9f b9 bd
       -0.033413343 -0.031182824 0.060272213 -0.090636685
0001d0 82 74 d7 3c 90 55 83 bd 8a eb 4f bd 3d 6a 59 3c
       0.026300672 -0.06412804 -0.050761737 0.013269958
0001e0 40 ca c7 bc 35 b5 99 bd 71 e5 37 bd c8 1b 20 bd
       -0.024388433 -0.075052656 -0.044896547 -0.039088994
0001f0 48 c7 d6 3c ba 55 e4 3c bd 74 6b bd 47 b4 85 3c
       0.026218072 0.027872909 -0.057484377 0.016321314
000200 30 57 0d bd 2e 94 a0 3c 27 66 02 3d 15 6d ac bd
       -0.034506977 0.019601908 0.0318357 -0.08419243
000210 b5 d1 b3 3c 25 af 44 3c 95 d4 5f bd 27 d3 9f 3c
       0.021950582 0.012004648 -0.054646093 0.019509865
000220 e6 ef 0c bc 56 ec 7a bd 68 20 8e bd 9f a2 a3 3b
       -0.008602118 -0.061260544 -0.06939775 0.004993751
000230 60 b5 f6 3c d4 40 ec bb 11 30 e1 3c b6 f0 73 bd
       0.030115783 -0.0072098766 0.02748874 -0.05955573
000240 46 5b 21 bd 5a 41 bf 3c b8 02 da 3a 44 fc 8c bd
       -0.039393686 0.023346592 0.001663289 -0.06884053
000250 73 36 74 3b 44 95 5d bd 2c eb 0a bc 05 40 1f 3d
       0.00372639 -0.05409743 -0.008478921 0.038879413
000260 f8 e9 c2 bc 29 90 7e bd c7 e9 7c bd 6c 83 99 bc
       -0.023793206 -0.0621492 -0.061746385 -0.018739425
000270 00 89 0d bd 4e da a5 bd 94 70 bd 3b a5 a7 f6 bc
       -0.03455448 -0.08098279 0.0057812426 -0.030109236
000280 e5 43 3b 3c 2c 21 11 bd 6c 92 5d bd 32 65 c8 bb
       0.011429762 -0.035432026 -0.054094717 -0.006115579
000290 e2 22 38 bd 31 8b 69 bd 7b 8a 51 bc bf a1 bc bc
       -0.04495514 -0.05701751 -0.012789364 -0.023026345
0002a0 ce f4 74 bd 4a 65 88 bd 67 dc d7 bc 71 27 68 bd
       -0.059803776 -0.06659944 -0.026350213 -0.05667824
0002b0 ec 4e 79 b9 8b df 2a bd 0c 43 c7 3c f3 e5 ad bd
       -0.00023775891 -0.041717093 0.024323963 -0.08491125
0002c0 17 a9 44 bd 2d 40 0b 3d 8b a8 51 bd 04 1c dd bc
       -0.04801282 0.03399675 -0.051186126 -0.026990898
0002d0 0b 3f 2d 3d c4 4f b0 3c 16 d5 e8 bc 9d d1 09 3d
       0.04229645 0.02152241 -0.02842192 0.03364717
0002e0 13 2f 79 bd 61 59 e1 bc eb 21 65 bb 59 39 ba bb
       -0.06083591 -0.02750844 -0.0034962844 -0.005683106
0002f0 01 38 bf bc c7 19 33 bc f7 28 85 bc 5c 4a ac bd
       -0.023342134 -0.010931439 -0.016254885 -0.084126204
000300 29 25 f6 3b ea 57 d3 3c 21 51 8a 3c 30 0c a0 bd
       0.007511754 0.025798757 0.016884388 -0.078148246
000310 0c 4b 11 3d 64 7c 1c bd 47 eb e4 b7 c2 eb 38 bd
       0.03547196 -0.038204566 -2.7289278e-05 -0.04514671
000320 91 5c 23 bd 62 c6 f8 bb 62 93 2f 3c d8 97 8e 3c
       -0.0398832 -0.0075920084 0.010716291 0.01740639
000330 8c 43 f2 ba 70 cc e0 bb 83 59 f5 ba e7 75 89 bc
       -0.0018483265 -0.0068603083 -0.0018718693 -0.016779853
000340 18 38 f3 bc e9 69 b4 bd ac 27 9b bd d7 00 74 b7
       -0.029689834 -0.08809263 -0.07575926 -1.4543729e-05
000350 75 15 9e bd 47 31 fe 3c f1 21 1d 3c 10 30 b1 bb
       -0.07718936 0.031029357 0.009590612 -0.005407341
000360 ae 79 df bb f5 81 e1 3c bf b5 94 bd 31 0c 89 bc
       -0.0068199253 0.027527789 -0.07261228 -0.016729446
000370 c6 ce 9e bd 20 58 4f 3b e2 0b 84 bd 01 2b 03 bd
       -0.07754283 0.003163822 -0.06447579 -0.032023434
000380 c8 90 fa 3c bb ac 68 bd 33 1b ec bc f4 5b 26 3c
       0.030586615 -0.056805354 -0.028821563 0.010153759
000390 26 06 a3 bc 7a bd dc 3c 01 49 4f bd d0 c8 74 3b
       -0.019900393 0.026945818 -0.05060673 0.003735114
0003a0 3e 88 f0 bc b8 96 4e bd 18 67 f9 b8 c0 d0 cd 3b
       -0.02936184 -0.050436705 -0.00011892448 0.0062809885
0003b0 c4 d8 2b bd 3b 45 80 bd 69 5a 81 bc 39 01 29 bd
       -0.04195477 -0.06263205 -0.015790181 -0.04126093
0003c0 e8 79 c9 ba 5d be fd 3c 2e f2 c1 ba ec b9 9a bd
       -0.0015371414 0.030974561 -0.0014796907 -0.07554993
0003d0 51 4a 05 3d 58 5c f6 3b 98 b4 6b bd 84 c3 2a bd
       0.032541577 0.0075183325 -0.057545274 -0.041690364
0003e0 48 90 a1 bd 8c 66 08 3d fc f8 2e ba 02 ff 6d bd
       -0.078888476 0.03330092 -0.0006674675 -0.058104523
0003f0 66 c6 4a bd 4a f0 37 3d 56 29 b3 bc 03 40 16 3d
       -0.049505614 0.044906892 -0.021870296 0.03668214

layers.1.bias f4 [256]
000000 e1 fe 1f bc d5 87 6a 3e 73 4a 41 bd 89 81 d6 3d
       -0.009765358 0.22903378 -0.04719014 0.104739256
000010 19 e0 97 3e ff c1 81 bf 3e 64 1d be 5a d4 ee 3e
       0.2966316 -1.0137328 -0.1537027 0.46646386
000020 87 c7 2f bf 20 74 af be 71 ef 83 bf 0b 49 a1 3d
       -0.6866383 -0.34268284 -1.0307447 0.0787526
000030 f6 0a 07 3d cb 6d bf bf 50 c4 49 3e a2 68 6e 3e
       0.032969438 -1.4955381 0.19703794 0.23282102
000040 8b c4 9a 3e 9b 36 86 3e 39 aa 15 bd 8f 01 e4 3c
       0.30228075 0.26213536 -0.03653929 0.027832774
000050 7f f9 88 bf c8 82 1a 3e 13 ca eb bd c8 16 a4 bd
       -1.070114 0.15088952 -0.11513152 -0.08012158
000060 80 8e 71 bf e6 75 e8 bd b1 34 72 be a9 f8 ee be
       -0.9435806 -0.11350612 -0.23652913 -0.46674088
000070 8d f0 ad 3d 9c 00 09 3f 5e e7 99 3b e6 81 57 bf
       0.08493147 0.53516555 0.0046967706 -0.84182584
000080 0e a8 29 be c3 fd 49 bf f3 5c 6e bf 5c d2 84 3e
       -0.16568014 -0.78902835 -0.9311058 0.2594174
000090 4c 18 4f bf 8d da 8b bd 2d f3 9b 3d 3a 87 95 3d
       -0.8089645 -0.06828795 0.076147415 0.07301183
0000a0 68 4a 09 bf b9 a0 79 bc 88 70 18 3e 13 47 42 3e
       -0.5362916 -0.015236073 0.14886677 0.18972425
0000b0 7b f3 30 bf ca f1 1c 3e 2b c6 51 3d 85 97 67 3c
       -0.6912152 0.1532661 0.05121438 0.014135246
0000c0 d3 32 f4 be de 55 4f 3e 75 90 37 bf 32 3f dd be
       -0.47695026 0.202476 -0.717048 -0.43212277
0000d0 fb 73 e4 3d 19 7b c7 3c 27 ef 30 3e 44 ad 0f bf
       0.11154934 0.02435069 0.1727873 -0.5612376
0000e0 2b d2 d6 3e ff c0 2a be 49 09 cd bd 26 98 09 bc
       0.4195722 -0.16675185 -0.10011537 -0.008398091
0000f0 0c 67 98 3d 28 45 91 be bb ab 5c 3e cc eb 18 3e
       0.0744153 -0.28373075 0.21549885 0.149337
000100 32 1f 5e be 28 03 e1 3e 89 f2 02 bf 51 bb 01 be
       -0.21691588 0.4394772 -0.5115133 -0.12669112
000110 75 01 68 bc 30 36 8f 3e 51 d9 15 be 83 99 61 bf
       -0.014160504 0.2797103 -0.14633681 -0.88124865
000120 0c 37 9b bd 88 c9 ec 3d 1a c3 8d be 7d 24 bd 3e
       -0.07578859 0.115618765 -0.27687913 0.369419
000130 ee 9f 36 3d e3 76 08 be 20 24 8d be 72 2a ef bc
       0.044586115 -0.13326602 -0.27566624 -0.029195044
000140 a3 22 36 bf 09 e6 34 bd 53 97 3f bf dd 54 e3 3e
       -0.711466 -0.04416469 -0.7484028 0.44400683
000150 9e 91 19 bf 25 9b 09 3e 01 bd a1 be fe 49 ea 3d
       -0.5998782 0.13438089 -0.3158951 0.11439894
000160 14 9c e2 be 6c ce f1 be 2d 43 61 bf 5e 71 ba 3e
       -0.44259703 -0.472278 -0.8799313 0.36414617
000170 d3 7b 61 bf ce 71 66 bf e7 f5 9b 3d 50 a7 3c 3e
       -0.88079566 -0.900174 0.076152615 0.184232
000180 83 b2 bd be d4 51 04 3e 12 c1 a3 3e ac f8 83 3e
       -0.37050256 0.1292184 0.31983238 0.2577566
000190 af 5a 3c be a6 c9 53 be bb 34 4b bf ab cb 55 3d
       -0.18393968 -0.20682392 -0.79377335 0.052196186
0001a0 53 b9 14 3f 3c 19 33 be 13 fc 3a 3f 17 95 f5 be
       0.5809528 -0.17490095 0.73040885 -0.4796531
0001b0 f4 fd 49 be eb dc 49 bf 93 2a 9f 3e 38 93 44 3e
       -0.19725782 -0.7885272 0.3108717 0.19196784
0001c0 d8 8f d4 be 34 ca da bd 06 34 9f bf f5 57 fc be
       -0.41515994 -0.106830984 -1.2437751 -0.49285856
0001d0 fc 24 a8 bd f0 07 0b bd a4 21 85 bf 1f 42 f1 be
       -0.08210179 -0.033943117 -1.0400891 -0.4712076
0001e0 03 97 4b 3d 47 5e 6f be 6a d4 2e 3f 89 00 89 bc
       0.049704563 -0.23375808 0.6829287 -0.016723888
0001f0 1b 38 5f bf 5f bf 78 bf 86 ff f5 3e e2 73 30 3e
       -0.87194985 -0.9716701 0.4804651 0.17231706
000200 9e 14 ad bd b4 a2 1b bf ae c3 56 3e f7 58 2d bf
       -0.08451198 -0.6079514 0.20973083 -0.67713875
000210 09 cd d5 3d 54 e2 1f 3d 7e 5e 98 3e bf 86 41 bf
       0.10439498 0.039034203 0.29759592 -0.7559623
000220 94 4a 3a bf f6 12 a7 3d 04 60 67 be 10 96 e6 3e
       -0.7277005 0.081579134 -0.22595221 0.45036364
000230 65 64 c0 bd eb 3f 01 bf cf 1e 2d bf 22 b2 af 3e
       -0.09394149 -0.50488156 -0.67625135 0.34315592
000240 a4 35 35 bf 0a 31 0c be 41 ee a3 3e 57 9c 64 be
       -0.70784974 -0.13690582 0.3201771 -0.22325264
000250 0f 48 ba be b5 48 fa be 71 84 18 bf 1a 42 f0 be
       -0.363831 -0.48883596 -0.5957709 -0.4692543
000260 a3 e1 b7 be b2 cb d9 be e9 da 0f 3e 39 b8 8c be
       -0.35914335 -0.4253822 0.14048351 -0.274843
000270 f1 e9 86 3e eb 48 d6 be 0c 96 58 bd 7f 73 85 bf
       0.26350358 -0.41852507 -0.05287747 -1.0425872
000280 6a 68 69 bd 94 85 09 bf 51 82 69 bf 24 d1 fd be
       -0.056984343 -0.5371945 -0.9121447 -0.49573624
000290 55 f7 3b bf 20 57 5f 3d cb ec 8f 3e 59 21 99 bf
       -0.73424274 0.05452645 0.28110346 -1.1963302
0002a0 d7 6a f8 be 1f 63 25 bf e2 d8 a4 3e 91 7d ee be
       -0.48519012 -0.6460437 0.32196718 -0.46580175
0002b0 41 5c 1b bf fa fb 23 bf 84 11 1b bf da 20 7e be
       -0.60687643 -0.6405636 -0.605736 -0.2481722
0002c0 2e 92 6c bf f6 56 1c 3f 7c c5 d5 be 1b 95 4c bf
       -0.9241055 0.6107019 -0.4175223 -0.79915017
0002d0 da cf 19 bf 75 c9 91 bf 01 80 87 bd 72 b6 fe bd
       -0.6008278 -1.1389605 -0.06616212 -0.124371424
0002e0 be 21 41 bf 8e 6a aa be 30 b5 67 3e ee 71 13 bf
       -0.7544211 -0.3328442 0.22627711 -0.5759572
0002f0 ac f9 66 bd 3b 1f 81 bd 00 2e aa 3e ca f2 22 3c
       -0.05639045 -0.06304785 0.3323822 0.009945581
000300 80 4c 76 bf 75 55 84 be bf 77 1c bf f2 6c d0 be
       -0.9621048 -0.2584645 -0.6112022 -0.4070812
000310 b8 dd 8e 3e 66 a3 84 3c 9d 04 16 bc 2e 61 fe be
       0.27903533 0.016191196 -0.009156373 -0.49683517
000320 2b 8c 0c be b1 b1 be be 0b df 1a bf da 5a 59 bf
       -0.13725345 -0.37244943 -0.60496587 -0.84904253
000330 04 20 ec be 3d 46 eb bc ca 63 80 be ac 5f 0e bd
       -0.46118176 -0.028720016 -0.25076133 -0.03475921
000340 b7 78 9f 3e 47 d8 f7 bd 7d a3 0c bf be c3 ab 3c
       0.31146786 -0.121017985 -0.54936963 0.02096736
000350 d6 86 54 bd ab bb fa be b5 80 b8 bd 36 22 76 bd
       -0.051886402 -0.48971304 -0.09008924 -0.06009122
000360 cf e5 48 bc 47 e0 76 3e d5 70 05 bd 2c a2 f9 bd
       -0.012261822 0.24108993 -0.032578308 -0.12189135
000370 01 29 83 3e a1 27 ef 3d 09 8b 19 be 5b 2b 89 bd
       0.2561722 0.116774805 -0.14994444 -0.066977225
000380 5e 94 0b bf ea 26 34 bf 7f e4 92 bb 98 e8 b8 bd
       -0.54523265 -0.7037188 -0.0044828053 -0.09028739
000390 91 35 e4 be 51 d4 7d be 34 f0 86 be db 6a a1 be
       -0.44572118 -0.24788024 -0.26355135 -0.31526837
0003a0 1a 38 41 3e 4e d7 4e 3c d8 3c 38 be 0c 19 ec 3e
       0.18869057 0.012624575 -0.1799196 0.4611286
0003b0 e3 4b 58 3e 09 a8 43 bf 29 43 e7 bd 72 42 94 3e
       0.21122698 -0.76428276 -0.11292107 0.28956944
0003c0 63 51 23 bf 0c 2f 87 3e c4 5a e6 3e 0f 17 6a be
       -0.6379606 0.2640308 0.44991124 -0.22860359
0003d0 e7 e4 87 3d 0c 8c 66 bf 71 ad 90 be a0 4f 31 bd
       0.066354565 -0.90057445 -0.28257325 -0.043288827
0003e0 dd dc 8b bf 8a bd 84 3e e3 96 a6 bf 7d b2 84 bf
       -1.0926777 0.25925857 -1.3014797 -1.036697
0003f0 0d b1 be bf 0c 4b 8d bf 92 1d c9 3e b5 6c 35 be
       -1.4897782 -1.1038527 0.39280373 -0.1771725

layers.2.weight f4 [3, 256]
000000 24 6e 3b 3c a5 4e c7 3e 77 33 06 bc 00 84 aa 3e
       0.011439834 0.3892719 -0.008190981 0.33303833
000010 a7 7f d3 3e 51 97 0e 3e 58 20 7c 3e 04 cd 94 be
       0.41308329 0.1392491 0.24621713 -0.29062665
000020 fa ae d0 3d 4c a4 bc be 07 73 c5 be 45 0e 47 bf
       0.10189624 -0.368441 -0.3856432 -0.7775615
000030 40 ec 2f bf 3a 10 71 bb 5f 86 15 bf 46 cd de bf
       -0.68719864 -0.0036783353 -0.5840816 -1.7406394
000040 63 be 02 3e 16 a2 78 3e 1f 3c 0c 3d 9f 79 46 3d
       0.1276794 0.24280581 0.034237023 0.04845583
000050 97 00 8e be b8 df d2 3d 2a 71 29 be ae 47 34 bf
       -0.27734825 0.10296577 -0.16547075 -0.70421875
000060 74 f3 1c c0 31 48 f3 3e 57 9d e5 be 19 a6 00 3f
       -2.4523592 0.47516015 -0.44846603 0.50253445
000070 57 37 86 be c2 a0 0a be 20 7f 72 bf 96 f7 ff ba
       -0.26214096 -0.13537887 -0.9472523 -0.0019528742
000080 5e fb e8 bd e7 a0 5c bf f7 ba 30 bf 2d e2 21 bd
       -0.113760695 -0.8618302 -0.69035286 -0.03952234
000090 30 99 3c bf 43 43 37 3d fb 40 03 3e 72 c2 94 be
       -0.73671246 0.04474188 0.12817757 -0.290546
0000a0 86 43 c3 3c 7b dd 03 3e 34 09 36 bf e3 e6 44 3f
       0.023835909 0.12877457 -0.7110779 0.76914805
0000b0 28 bb 00 bf b1 4b 41 bf 85 f8 92 3d 61 be c7 3d
       -0.5028558 -0.7550612 0.071763076 0.09753109
0000c0 15 6e c3 bc e5 e4 1a 3d 5b e4 c1 3d 27 5c a4 be
       -0.023856202 0.037815947 0.094673835 -0.32101557
0000d0 05 dd a5 be 0b 8b a3 3e dc 1e 02 bd ba f2 ce 3f
       -0.32395187 0.3194202 -0.03176771 1.6167824
0000e0 bd 59 ff be 9c 62 3f bf ef 1b ef bf 41 19 92 3c
       -0.49873152 -0.7475984 -1.86804 0.017834308
0000f0 5c dc 31 be 67 3f b3 be 11 01 33 3d 58 ea c2 be
       -0.17369217 -0.3500931 0.04370219 -0.38069415
000100 b6 1a 41 3e f6 bd d0 3e c7 dd 1b bd 76 b2 ef 3d
       0.18857846 0.4076993 -0.0380533 0.117039606
000110 b9 c6 d3 bd 85 38 a5 3d da 18 eb bb e0 f6 a6 3f
       -0.10340638 0.08067421 -0.0071745934 1.304409
000120 5d 6e 28 be 92 51 bf 3e 9a 18 07 3e e1 53 94 3e
       -0.1644835 0.3736692 0.13192979 0.28970245
000130 35 57 b3 be 11 20 40 3f e4 45 00 3d 98 1f 97 bc
       -0.3502747 0.7504893 0.031316653 -0.018447682
000140 b6 99 8a 3f 44 f3 8c bf a2 d8 92 bd de 1d de 3f
       1.0828159 -1.1011739 -0.07170226 1.7352865
000150 39 97 af 3d 44 62 08 bf 32 db 53 bc ca 42 57 bd
       0.08573765 -0.5327494 -0.012930678 -0.05255393
000160 b0 54 8c 3f 31 01 bc be 0e 78 da 3f 3d d5 46 3f
       1.0963345 -0.3671966 1.7067888 0.77669126
000170 0c 3e b5 3e a5 5e f7 3e 74 be de be 64 d3 fb 3c
       0.353989 0.48314396 -0.4350468 0.030740447
000180 46 fd 98 be b8 0c 80 3c 11 e1 fb 3f e4 10 3c bd
       -0.29880732 0.015631065 1.967806 -0.045914546
000190 70 6b a4 bd d8 d3 03 40 75 59 ff 3c 6c 75 8e bd
       -0.080283046 2.059805 0.031170586 -0.0695599
0001a0 e0 a2 63 3e 64 5a 1b 3e 4c ab 84 3e 76 8b 74 3f
       0.222301 0.151712 0.2591194 0.955253
0001b0 51 39 c6 be 38 2b 25 3d cb 1c 40 3d b0 4a 4e be
       -0.38715604 0.04032442 0.04690246 -0.20145679
0001c0 76 e3 89 bf 2b 9c e8 3d 68 c7 21 be ab d9 82 bd
       -1.077254 0.11357912 -0.15798724 -0.06389173
0001d0 a7 2a 59 bd ab 31 19 40 ee f6 d6 be 6a 24 6b 3f
       -0.053019192 2.3936565 -0.41985267 0.9185244
0001e0 53 d7 9a bb 84 93 b5 3d a8 ed 16 be 2d ed 29 c0
       -0.0047253757 0.08866027 -0.14739096 -2.655101
0001f0 28 45 f9 be 0d f9 37 be e8 2c 2e 3f 6c dc 62 3c
       -0.48685575 -0.17966099 0.6803727 0.013846498
000200 7d 1d 00 bd 18 d6 97 3d 1b 85 f0 bd a6 ba c4 be
       -0.031278122 0.07413882 -0.11744138 -0.3842365
000210 d9 61 4a 3e b4 04 aa be cd 1f 44 3e 99 37 12 3f
       0.19763888 -0.33206713 0.19152756 0.57116085
000220 f2 0f 2b be a1 5f 46 be 36 7d 0e 3f 88 6e ec 3d
       -0.16705301 -0.19372417 0.55659807 0.1154452
000230 1c 9e 37 3d 40 cc 6e 3f 6a ff 43 3e b7 cc ef be
       0.04482852 0.9328041 0.19140401 -0.46835873
000240 4f ab db 3c 7b 48 c4 3d ff 97 9c 3d 69 60 b0 3f
       0.026815085 0.09584137 0.076461785 1.3779422
000250 8b 77 f0 bc 1c 9c 21 3f 1a cb 66 3e e5 cc d8 be
       -0.029353878 0.6312883 0.22538415 -0.42343822
000260 40 95 a3 3d ac ad 0b 3f 9d c3 63 bf 75 66 84 bd
       0.079874516 0.5456188 -0.8897036 -0.06464855
000270 ee 97 a9 3c 61 cf 48 3d 4a 13 d3 3f 4d ad e0 3e
       0.020702329 0.049025897 1.6490262 0.43882218
000280 c9 52 f8 3d df 5f 49 3e 85 15 4b 3e be 5c 4b bf
       0.12125165 0.19665478 0.19832428 -0.7943839
000290 4a e7 e9 be ce e3 8a c0 54 1b 10 be 5d 8b c1 bc
       -0.45684272 -4.340308 -0.14072925 -0.023626024
0002a0 4a 0d 96 3d af 05 37 3f 60 9b 82 3e 5f 08 7f be
       0.073267534 0.7149305 0.25509167 -0.24905537
0002b0 5b f0 28 bd 8d 41 70 be 9b 16 4c 3f 2b 9f a1 bf
       -0.041244846 -0.23462506 0.79721993 -1.2626699
0002c0 9a d6 54 3f 98 28 52 be a4 99 0c 3e 02 90 cd 3e
       0.83139956 -0.20523298 0.13730484 0.40148932
0002d0 9b 5b 83 ba 05 24 f4 be 64 0a f8 3d d0 81 06 bf
       -0.0010021807 -0.4768373 0.12111357 -0.5254183
0002e0 6a 61 8e 3f c2 2f 50 be c9 12 70 bc 15 a2 54 3d
       1.1123478 -0.20330718 -0.014652916 0.051912386
0002f0 a8 ed 4b 3d 14 19 ba 3c eb d7 51 be a9 8f 39 be
       0.049787194 0.022717036 -0.20492522 -0.18121208
000300 e8 c5 f5 3d ec 06 64 3d 42 b6 28 3f 44 0e bf 3d
       0.12000638 0.055670664 0.65903103 0.09328893
000310 8f 4d 31 be ce 1e 36 bc 61 65 d1 be 81 f7 87 be
       -0.17314743 -0.011115743 -0.40897658 -0.26556018
000320 24 42 b4 bd 95 a4 40 3f e5 ac 3d 3f 90 0f a1 3e
       -0.08801678 0.7525113 0.7409194 0.31457186
000330 fb c6 65 bf b6 c2 bd 3c 15 45 01 bf 44 88 f9 be
       -0.89756745 0.023164134 -0.50496036 -0.48736775
000340 26 e0 74 be a8 a3 07 3f 90 7c fc bd 96 ed 11 be
       -0.23913631 0.52984095 -0.12328446 -0.14250788
000350 53 9f b1 3e dc 92 3d bf da dd 8b bd e1 ee 28 3e
       0.34691867 -0.74052215 -0.06829424 0.16497375
000360 ea a6 e1 bc ca dd 9b 3d 3f c6 1f bc a5 b3 97 bd
       -0.027545411 0.07610662 -0.009751855 -0.07407311
000370 06 02 6a 3f bd c5 02 3e 7d 5a e8 bc 89 6b 09 3d
       0.9140934 0.12770744 -0.02836346 0.03354982
000380 1d 73 9e be cb cd 7d be 59 66 cd 3c ff e6 6b 3e
       -0.309472 -0.24785535 0.025073217 0.23037337
000390 ba b0 63 40 08 c3 b9 bf 62 28 05 be d1 f2 5f bf
       3.5576615 -1.4512644 -0.13003686 -0.87479883
0003a0 6b a6 0f 3e 0f d0 8f 3c 42 ff 44 bd b2 d9 d8 3d
       0.14028327 0.017555265 -0.048094995 0.10588397
0003b0 50 1a ec 3c b1 7d 46 be 5c 59 a3 3b e2 1c a9 bd
       0.02882114 -0.19383885 0.0049850177 -0.08257462
0003c0 e5 99 ae bf 49 48 63 bf 1c 88 af 3d e0 bd 23 bf
       -1.3640715 -0.88782173 0.08570883 -0.639616
0003d0 b5 cb 97 be 0e ee d6 be 67 67 32 3e 0c 84 e9 bc
       -0.29647604 -0.41978496 0.17422257 -0.028505348
0003e0 d1 ab 8c 3f 10 53 86 c0 5d 65 21 3f f0 dc a5 bd
       1.0989934 -4.1976395 0.63045293 -0.08098781
0003f0 9b 79 37 be 0f 14 d8 bf 1c 80 20 be 74 f0 c8 be
       -0.17917483 -1.6881121 -0.1567387 -0.3924595

layers.2.bias f4 [3]
000000 26 6c d0 3d fa b6 01 3d 20 d4 9e be
       0.10176878 0.03166864 -0.31021214

layers.3.weight f4 [3, 256]
000000 e5 52 b6 3b d7 ef db 3d 37 df 26 3d a0 4d a0 3e
       0.005564081 0.10739105 0.040740218 0.31309223
000010 fc 15 ce 3e ac d3 8d 3f 0a 09 38 be ca 47 4b 3f
       0.40251148 1.1080222 -0.17972198 0.79406416
000020 76 d1 3b 3f 54 45 2b 3d cc 4c 1c 3f d5 43 30 3f
       0.7336649 0.041814163 0.6105468 0.68853503
000030 d0 4e 55 3d f7 51 3f 3f 8b 90 bd 3e ed 16 c5 3f
       0.052077115 0.74734443 0.3702434 1.5397621
000040 e6 39 c3 3e 66 31 31 3f 7a fb a5 bc a7 15 8d bd
       0.3813011 0.69216 -0.020261515 -0.068888955
000050 70 12 8c 3f 82 bc c3 3d 35 2e cb 3e 5a 43 ff 3d
       1.0943127 0.095574394 0.3968369 0.12464018
000060 a5 79 5b 3f 69 1b 26 3f 9f 5b 15 3e 1a 56 bb 3e
       0.8573249 0.64885575 0.14585732 0.36589128
000070 b0 4b da bc 7b 25 a0 3e 52 0d 9d 3f 73 74 15 3f
       -0.026647419 0.31278595 1.226969 0.5838081
000080 29 80 a8 bd 7d 27 ac 3f 42 32 78 3f f3 78 a8 bd
       -0.082275696 1.3449551 0.9695169 -0.08226194
000090 59 52 a1 3f 9d 01 c8 bc 31 0d ea bc 4e 17 f4 3e
       1.2603256 -0.024414832 -0.028570743 0.4767403
0000a0 a9 eb 82 be e0 15 8d 3e cf 99 a6 3e c0 89 eb 3e
       -0.2557042 0.27555752 0.32539222 0.46003532
0000b0 ba 95 ab 3c 44 de cc 3e 39 78 6c bd ec 68 3b 3e
       0.020945419 0.40013325 -0.05773184 0.18301743
0000c0 97 00 4e be 3b 2e 8a be ce cd 4b 3f 5d 2d 4c 3f
       -0.20117413 -0.26988396 0.7961091 0.7975672
0000d0 2a f0 90 3e b3 b3 3e 3e b4 50 11 40 84 d0 87 3f
       0.2830823 0.18623237 2.2705507 1.0610509
0000e0 12 00 84 c0 15 2d 4e 3f de 1b 01 40 e7 e3 82 bd
       -4.1250086 0.8053754 2.0173259 -0.06391125
0000f0 b7 3c 1a bf e1 01 e8 3e fd 92 05 3e 97 5a 45 be
       -0.60248893 0.45313933 0.13044353 -0.19272839
000100 66 03 05 3e e2 10 a3 3e b6 65 ab ba ec cc e5 3e
       0.12989578 0.31848818 -0.0013076577 0.44882905
000110 2b 2f d1 3d e0 97 61 3d e0 68 1a 3e 67 b5 31 3f
       0.10214075 0.05507648 0.15079069 0.69417423
000120 3e 98 8e be 74 ee 15 bf 3c ae 3c 3e 69 5b 0d 3e
       -0.27850527 -0.58566976 0.1842584 0.13804401
000130 81 38 03 be 3a 87 06 3e ef a3 8b be 75 a2 bf 3c
       -0.12814523 0.13137522 -0.2727351 0.023392895
000140 49 90 a4 3f cd ad 94 3f cb 3c de 3e 29 a8 c3 3f
       1.2856532 1.161554 0.43405756 1.5285693
000150 92 15 4b 3f e5 f9 b3 3d 7a ba 85 3d bc fc a7 bd
       0.7932979 0.08787898 0.06529708 -0.08202502
000160 37 fc ec 3e 1b 33 a8 3e 41 d6 8c 3f 32 8b 94 bd
       0.46286175 0.3285149 1.1002885 -0.07253112
000170 78 5b cc 3e 11 10 66 3f 9a 95 52 bf 9d 1e 9e be
       0.39913535 0.89868265 -0.82259524 -0.3088273
000180 8b 09 d0 3e 9f 7e 8e 3d b7 a9 5f 3f 2c 0a e6 bd
       0.4063228 0.06957745 0.8736834 -0.11232409
000190 61 c5 ac bd 72 d4 d2 3f 36 a0 1a 3f a0 2a 45 3d
       -0.084360845 1.6471083 0.6040071 0.048136353
0001a0 da 21 46 bf 86 b9 3b be 48 94 c0 3e 3a ac 87 3f
       -0.77395403 -0.1833249 0.3761313 1.0599434
0001b0 33 a4 92 3f 38 57 b6 3d 44 21 52 3e 17 7d 9d be
       1.145636 0.089033544 0.20520502 -0.30759498
0001c0 24 87 90 3f 51 dd 39 3d ee 86 e3 3e 78 b4 55 3f
       1.1291242 0.04537708 0.4443888 0.834785
0001d0 7f be 3a 3e 74 04 c8 3f 66 73 88 3f df 5a 57 bf
       0.18236731 1.5626359 1.0660217 -0.84123033
0001e0 8a ea ff 3d 9a e5 4c 3f 6c 5e 13 3e 42 bf b4 3f
       0.12495907 0.80037844 0.14391488 1.4120867
0001f0 93 a6 15 3f 2e ed 52 3f 87 90 8c 3f ae d3 40 3d
       0.584573 0.8239316 1.0981606 0.047076873
000200 22 19 68 bc 6a 7d 03 3e d5 87 e2 3e bb e4 15 3f
       -0.014166148 0.1284081 0.44244257 0.5855214
000210 1f 45 07 bc 39 5a c6 3e 48 1f ad 3e ac 1e 88 3f
       -0.008256226 0.3874071 0.33812928 1.063436
000220 8d 7d bc 3e f5 8d f9 3c 31 00 61 3e 47 98 17 3f
       0.36814538 0.030463198 0.2197273 0.5921673
000230 97 18 39 3b f1 3a d4 3e 14 0f 76 3f 2d fb 95 3e
       0.0028243416 0.4145122 0.9611676 0.29293194
000240 fc 73 7c 3e 5b 9d bb be 90 7d e5 3d 89 66 7d 3f
       0.2465362 -0.3664349 0.1120559 0.9898458
000250 5b 01 47 bd b5 f0 84 3f 6e b5 11 3f 1b 21 ab 3e
       -0.048585277 1.0385958 0.56917465 0.33423695
000260 74 50 16 bd b0 91 fc 3e a2 d2 81 3f cf 16 58 3c
       -0.03669782 0.493299 1.0142405 0.013189032
000270 74 39 91 3b 4e a6 81 3c d4 66 e7 bf 62 4a 4b 3f
       0.004431898 0.01582637 -1.8078256 0.79410374
000280 10 12 0c be c2 99 09 3f e7 3e bc 3d fe ad 9d 3f
       -0.13678765 0.5375024 0.09191685 1.2318723
000290 a1 73 7c 3f de 21 bc 3f ec f3 33 3d 0a 50 03 3f
       0.98613936 1.4697835 0.043933794 0.51294005
0002a0 31 34 fb 3e 36 26 8f 3f 7d 26 5b bd 1e 8c 9d 3f
       0.49063256 1.1183536 -0.053503502 1.2308385
0002b0 3b 0a de 3e e6 95 f4 bd 9c 00 f0 3f 75 63 a4 3e
       0.4336718 -0.11942653 1.8750186 0.3210713
0002c0 d5 83 54 3f 8e 78 41 be 43 15 10 be 5d b9 6c 3e
       0.8301366 -0.18893644 -0.1407061 0.23117585
0002d0 2c 0c 05 3f 9d b2 2f 3f 97 6b 24 bf b6 b6 2e bf
       0.519717 0.6863192 -0.6422667 -0.68247545
0002e0 31 cd 7a 3f ed 56 fa 3d 01 5c c4 be 5e c6 1e be
       0.9796935 0.12223611 -0.38351443 -0.15505359
0002f0 b6 f1 03 3d c3 c8 c0 3c 77 51 17 3e 90 7c c7 3d
       0.032212935 0.02353323 0.1477717 0.09740555
000300 9e 2f 23 3f e5 8b 77 3d 80 60 7c 3e df 9b 5f bd
       0.63744533 0.06043615 0.24646187 -0.05459201
000310 83 5e 88 3d 48 66 1e bd 1f 7b 49 3f 3c 02 b9 bb
       0.06658652 -0.03867176 0.7870349 -0.0056460183
000320 1a d6 85 be fa 8b 85 3f 62 7e dc 3f 5f 71 88 3f
       -0.2613991 1.0433342 1.7226069 1.0659598
000330 90 da 21 bf 55 eb 13 3d 54 1d d9 bd 42 71 ec 3d
       -0.63224125 0.036113102 -0.10601297 0.1154504
000340 6f 53 58 be 2e 80 91 3e 28 b6 0c 3f 66 c1 ce 3e
       -0.21125577 0.28418106 0.5496545 0.40381926
000350 ed f5 86 3e b0 e7 2c 3f 69 1a eb 3c b7 5b 9c be
       0.263595 0.6754103 0.028699117 -0.30538723
000360 83 29 24 3d 41 ad d7 3e d6 1a 2f 3d 21 0c e1 3c
       0.04007865 0.4212437 0.042750202 0.027471604
000370 1d 25 ba 3f 1b d9 66 3e 15 af 74 3e f7 ef 84 bc
       1.4542576 0.22543757 0.23894913 -0.016227705
000380 ec dd 21 3f 29 a9 bd bd eb 47 21 3a e4 2a 81 3e
       0.6322925 -0.0926078 0.0006152379 0.25228035
000390 e1 74 ce 3f 88 a6 d6 3e e5 e8 51 bd e2 82 8b 3f
       1.6129419 0.41923928 -0.051247496 1.0899317
0003a0 4b 83 ff 3d d6 6b 7e 3c a1 83 a2 3e 3e dc 9e 3d
       0.12476214 0.01552864 0.3174105 0.077568516
0003b0 d1 18 13 be e7 57 5a 3f 90 9a cd 3d 7e 5c c2 bc
       -0.14364935 0.8529038 0.10039246 -0.023725744
0003c0 fa 03 57 3f 8d 4e aa 3f dd 67 12 3d 7f f3 9c 3e
       0.8399044 1.3305222 0.035743583 0.30654523
0003d0 16 b3 f8 3d b8 a5 59 bd dd fc 17 3e c5 14 0c 3d
       0.12143533 -0.053136557 0.14842553 0.034199495
0003e0 ec e2 1a 3f 26 51 ba 3f 02 be af 3f 7f 82 44 3f
       0.60502505 1.4556015 1.3729861 0.7676162
0003f0 a1 24 62 3f 1f a0 2f 3f 2d 4a b3 3d 02 30 6b be
       0.8833714 0.686037 0.08754382 -0.22967532

layers.3.bias f4 [3]
000000 2d 74 1c c0 2d 21 fc bf 4a 17 37 c0
       -2.4445908 -1.9697624 -2.8607965
